classifier/ensemble/step2A/step2A_3.pt (torch, 417647 bytes, 22 tensors)

conv_block.0.weight f4 [32, 1, 3, 3]
00000000: 231e 1fbe c451 5abd fbba ca3c 0b13 28bd
00000010: 02f9 d9bb 4f52 83be 8595 4abe 9b84 98be
00000020: 1b3b e53d dd5d 4c3e 1d04 56be d4ea a43d
00000030: 018d 8b3e b75d 963e 2785 843e dd31 803e
00000040: 7adb f0bc 9a2e 92bd 0881 3f3e 0668 f5bd
00000050: 392a 4bbe a974 1e3d 8380 bd3c 1c8b 1bbf
00000060: 57bf a4bc 7ef1 563c 3878 bcbe 2ac6 313e
00000070: 2b45 4ebf 07d5 e13c ffaf 53be 1947 d0be
00000080: 1628 14bd 110f 373d b59d 53be 9078 d83b
00000090: 2422 cb3d 8f5a 21be 5226 353e b210 2f3d
000000a0: 1399 c4bd 3fb2 96be 0644 133e 8c1e a3be
000000b0: 607d 5c3e e3ab 153e a8bd a03d 37e3 0ebd
000000c0: de3f 3fbe a743 e83d faee 8c3e 01a0 8cbd
000000d0: 48c8 873e 5553 b23e d69a 59be 16d8 e83d
000000e0: 1a27 693d 195f c3bd 42e0 0c3e fa96 c3bd
000000f0: bc9c 043e 9b81 98bc 10f7 5abe ed0a 3d3e
00000100: a5a3 1fbe 1d11 43bd 8dc2 893d 3532 96be
00000110: 45db 8ebe a299 103c d220 80be ab00 8a3e
00000120: d97b 3cbe dc25 a2bc fc6c 11be 168e abbe
00000130: 2797 0bbd 80f8 2ebe 8a44 64be 3515 8ebd
00000140: 2cfb 6a3e fb94 28be 282d 3fbe 558b 78be
00000150: d395 19be 0657 c73d 3874 6cbe 7647 c23d
00000160: 3b62 e03d 3459 723e cc36 8f3e 3d98 373e
00000170: 36e0 053e 8fdb 543e 5457 d93e 1cd0 fe3d
00000180: 6ac9 023c 95b4 003d 6170 65be 3f94 bcbe
00000190: d770 7bbe 3e1a 48bd 9da7 ad3e b6b6 5b3b
000001a0: 7c61 e7bd 80a6 39be e995 743d 157b 2f3e
000001b0: 3039 1cb9 8217 8e3e cf3b 85be 6b4d d3bd
000001c0: 4aaa 3cbe 65e8 43be fd38 a13e c138 61bd
000001d0: 8570 eebe 7677 d5be e338 393e 1c98 653e
000001e0: 7b45 29be 5de1 033d 9aaf 50be e7a7 06be
000001f0: 00ad 163e 1e3a b6be 567e aebe c785 2a3e
00000200: 10b5 a2be fb7f e4be ba7c 08bd 1f99 1f3e
00000210: 560c 0dbf 0aac f6bd 552f 1d3e f16a e7be
00000220: 920b 673e 3a65 9f3e 9418 debe fd8b 70be
00000230: 0d8e 7bbe 5a12 bfbe 3735 e0bd 66c2 27bc
00000240: bd4f cb3d ddfe 7f3e ddf6 8b3e 4494 6ebe
00000250: c835 d9bd 57d7 89be 08be a8be e973 173e
00000260: bc99 9bbc ede6 9b3b 5741 793e c58c 633d
00000270: 9aca abbd 1ed4 863e 88b0 6e3e e53c 08be
00000280: e1c7 223d 9910 893e d19f bfbd 26b6 293c
00000290: 77ec 52bd d158 6c3e f3a7 f1bd 1516 6cbe
000002a0: f13c 58be 724a 5d3e 83df d2be 5879 d1bd
000002b0: e4b6 553e 2881 49be 379e 9ebe 6a65 223e
000002c0: f930 bebd f624 7fbe 2d2a 533e e2e6 25be
000002d0: 49bf 7c3d e369 813e 22a0 59bd 4fa0 22be
000002e0: 98e4 af3e 21f2 403d b4c5 7c3e 1b8b 753e
000002f0: 8fba 943e c443 5c3e be40 a1bb 76b7 2bbe
00000300: 6fec c53e 5d91 d5bd e282 7b3e ecad 003e
00000310: ceae 173e ab06 0d3e b2c9 b23e 128d fb3d
00000320: f0ce 9b3e 3cb8 da3e 2acb 0abd 4e4a 48bd
00000330: 954d d4bc 4860 e6bc dce6 1cbd f32f 123e
00000340: c35f ce3c 4c2e 2abe 5c1e 0e3e 2822 48bd
00000350: 08ce b8be ea6f 9bbe 7563 8d3e 39d1 b7be
00000360: b313 1fbb 959f e0bd 7543 383e e0c1 5d3e
00000370: 6f1c 90be aedc 0cbe a5dc 863e d17a df3d
00000380: bb36 aebe addd de3e 2e26 f5bd d136 1d3d
00000390: 8e72 0a3d b47f 303e d2ee 853c ac8c 493e
000003a0: af5d 30bb 7650 6a3e 4862 81be 61b5 74be
000003b0: adaf 453e ca00 ca3d 7b21 92bb 6986 823e
000003c0: b473 fb3d 1a94 b7be 0e7a 703d 83cd aabe
000003d0: 8551 313d 2697 123e 984a 2d3c f7f6 41be
000003e0: 3995 943e 5cf6 723e 7bae 853e 0c7d bcbd
000003f0: 1e98 7d3e e895 4c3d e77d 8c3e bf9e e43e
-0.1553884 -0.053300634 0.024747362 -0.041033786 -0.0066519985 -0.25648734 -0.197836 -0.2978867
0.11192914 0.19957681 -0.20900007 0.080526024 0.27256015 0.29368374 0.25882837 0.25038043
-0.02940153 -0.07137795 0.18701565 -0.119827315 -0.19840325 0.038685475 0.023132568 -0.6075914
-0.02011077 0.0131191 -0.3681047 0.1736075 -0.8057429 0.0275674 -0.20672606 -0.40679243
-0.03617104 0.044692103 -0.20665629 0.006606169 0.09918621 -0.15757202 0.176904 0.04274053
-0.09599509 -0.29432866 0.14381418 -0.31859243 0.21532202 0.14616351 0.07848674 -0.034884658
-0.18676707 0.11341029 0.27526075 -0.06866456 0.2651999 0.34829202 -0.21250471 0.1136934
0.056922056 -0.09539623 0.13757423 -0.09550281 0.12950414 -0.018616488 -0.2138331 0.18461199
-0.15589769 -0.047623742 0.06726561 -0.2933518 -0.27901664 0.008825691 -0.2502504 0.26953635
-0.18406619 -0.019793443 -0.1420173 -0.3350684 -0.034079697 -0.17086983 -0.2229177 -0.06937639
0.22947377 -0.16463082 -0.1866957 -0.24271901 -0.1499856 0.09733395 -0.23091209 0.09486286
0.10956236 0.23666841 0.27971494 0.17929168 0.13073811 0.2078688 0.4244944 0.124420375
0.007982591 0.031422216 -0.2240615 -0.36831853 -0.24554764 -0.04885315 0.3391694 0.0033525652
-0.112978905 -0.18129921 0.059713278 0.17136796 -0.00014898623 0.2775231 -0.26022193 -0.10317501
-0.18424335 -0.1913162 0.3148879 -0.054985765 -0.4657022 -0.41692704 0.18088107 0.22421306
-0.16530411 0.032197345 -0.20379487 -0.13149987 0.14714432 -0.35591215 -0.34080762 0.16652595
-0.31778765 -0.4462889 -0.033322074 0.15585755 -0.5509695 -0.120445326 0.15350087 -0.45198777
0.22563007 0.31131917 -0.43378127 -0.23490901 -0.24565907 -0.3731869 -0.1094765 -0.010239219
0.09927318 0.24999566 0.2733678 -0.23298746 -0.10605961 -0.26922104 -0.32957482 0.1479031
-0.018994205 0.004757753 0.24341331 0.05555417 -0.083882526 0.26333708 0.23309529 -0.1330448
0.0397414 0.26770476 -0.093566544 0.010358369 -0.05149504 0.23080756 -0.11799612 -0.23055299
-0.21116997 0.2161043 -0.4118615 -0.102282226 0.20870548 -0.19678175 -0.30980083 0.15858999
-0.092866845 -0.24916443 0.20621558 -0.16201356 0.06170586 0.25276098 -0.05313123 -0.15881465
0.3435409 0.047105912 0.24684793 0.23978846 0.29048583 0.21510226 -0.004921048 -0.16769204
0.38656947 -0.104281165 0.24561647 0.12566346 0.14812776 0.13772075 0.34919506 0.122827664
0.30431318 0.42718685 -0.03388516 -0.048898987 -0.0259159 -0.028122082 -0.038306102 0.14276104
0.025192147 -0.16619223 0.13878769 -0.0488607 -0.3609469 -0.3035882 0.27614942 -0.35901812
-0.0024273216 -0.10967938 0.17994483 0.21655989 -0.28146693 -0.13756058 0.26340213 0.10912097
-0.3402613 0.435285 -0.11970173 0.038382355 0.033800654 0.17236215 0.01634923 0.19682568
-0.0026911309 0.22882256 -0.25270295 -0.23897316 0.19305296 0.09863432 -0.0044595576 0.25493172
0.12277928 -0.3585518 0.05871015 -0.33359918 0.043290634 0.14315471 0.010576867 -0.18941866
0.29020098 0.23726791 0.2610968 -0.09203538 0.2476506 0.04994765 0.27439806 0.44652364

conv_block.0.bias f4 [32]
00000000: 4b7f 01be d2b0 a3bc 8a91 0b3e 7b0d afbd
00000010: 3930 153e 26b2 9f3e e996 5d3e 6661 02be
00000020: b9dd a33d 953e 513e fbe0 a6bd ff4e 7ebe
00000030: fbd3 a6be 5ead 9dbe 3617 9abd fd7a 963e
00000040: 88df 773d d147 1cbd 44f6 60be 6b7f 933e
00000050: da18 21be 3ac9 a03d 2609 63be a1cf dd3b
00000060: b2e9 9ebe 643a 1dbe e6bf 713e 9efa fd3d
00000070: e4cd 91be cbef 82be ee85 463e b8ea ba3e
-0.12646215 -0.019981775 0.13629737 -0.08547493 0.14569177 0.31190604 0.21639599 -0.12732467
0.080012746 0.2043403 -0.0814838 -0.24834822 -0.32583603 -0.3079633 -0.075239584 0.29390708
0.06051591 -0.038154427 -0.21968943 0.2880815 -0.15732136 0.07850881 -0.22171459 0.006769136
-0.3103767 -0.15354306 0.2360836 0.12401317 -0.28477395 -0.25573573 0.19387028 0.365072

conv_block.1.weight f4 [32]
00000000: 763a 603f 7abd 763f 1f14 693f 7c74 863f
00000010: 3bff 673f daf2 4c3f 0d3a 6d3f 29df 623f
00000020: 3129 6f3f 7b2e 7c3f 47dc 4b3f 3951 773f
00000030: 94ce 673f 28e7 773f e50a 8d3f 0f37 823f
00000040: 6d2f 623f 4570 4b3f f2b8 833f 27fc 803f
00000050: 5e0a 503f 8bca 6c3f 3690 7a3f e70f 7e3f
00000060: 817b 813f befd 6e3f b3d8 6a3f 31cd 4b3f
00000070: 1fc9 783f 5c60 7b3f cfae 633f 5ea9 8d3f
0.87589204 0.9638287 0.9104633 1.0504298 0.90623826 0.8005806 0.92666703 0.88621765
0.9342223 0.98508424 0.7963299 0.9660831 0.9054959 0.9683709 1.101895 1.0173053
0.88353616 0.79468185 1.0290816 1.0076951 0.8126582 0.92496556 0.978763 0.99243015
1.0115815 0.9335593 0.91736907 0.7960997 0.97181886 0.9819391 0.8893861 1.1067312

conv_block.1.bias f4 [32]
00000000: a727 c6be 7c6a 2abd 0686 d6be 42ac 26be
00000010: 230c bebe 30ee 18bd 6d4b 85be 2456 f9be
00000020: 6b0c 23be 05e8 03bf af38 88bc 02bd ecbe
00000030: 5501 0abf d2b7 94be 7f68 3bbe f5e4 aebd
00000040: 97d3 34be 97da 8cbe d758 01be 9514 a7bd
00000050: 5eea 95bd 4589 e1bd a337 c0bd daac bbbe
00000060: eb0e a2be 09d2 6dbd ce16 cabe d3d2 a7be
00000070: e635 a8bd 7db8 dcbe 8394 67be eff5 18be
-0.38702127 -0.041605458 -0.41899127 -0.16276649 -0.37118635 -0.03733653 -0.26034108 -0.48698533
-0.15922706 -0.5152591 -0.016628591 -0.46237952 -0.5390828 -0.29046494 -0.18301581 -0.08539764
-0.1765884 -0.2751052 -0.12631546 -0.081582226 -0.073200926 -0.1101251 -0.09385612 -0.36655313
-0.31652007 -0.058061633 -0.39470524 -0.32778034 -0.08213405 -0.43109503 -0.22615246 -0.14937566

conv_block.1.running_mean f4 [32]
00000000: 5891 c4c0 9515 f340 6d7e e7c0 ff0f 1cc1
00000010: ada9 b8bf f1a8 d340 812b a8bf a16e 74c0
00000020: 6d9a d4c0 0b31 3bc0 35c5 0241 132b 2dc0
00000030: 64d2 a6c0 e40e a7c0 ad9f 14c1 b7e1 12c1
00000040: 6d80 e7bf 0b8c c240 9f8e 90c0 0838 63c0
00000050: 9be0 0541 aebc e140 80bc dc40 09d9 91c0
00000060: 5fba 92bf 54df d540 1a11 d0be 854e 2540
00000070: cb4a 0241 c226 aabf 083b d540 29fb 0dc1
-6.142742 7.5963845 -7.234183 -9.753905 -1.4426781 6.6143727 -1.3138276 -3.8192523
-6.643851 -2.9248683 8.173146 -2.705754 -5.2131824 -5.2205677 -9.288983 -9.180106
-1.8086067 6.079595 -4.51741 -3.5502949 8.367335 7.054282 6.8980103 -4.5577435
-1.1463126 6.6835117 -0.40638047 2.5829175 8.14326 -1.3293078 6.663456 -8.873818

conv_block.1.running_var f4 [32]
00000000: 0ba1 5043 a955 b143 0ac8 5444 af7a 8c44
00000010: a588 3743 2310 bf43 2700 8842 f9d8 9443
00000020: 4e9e af43 5ec9 9c42 329a ea43 ee9e 7342
00000030: dc31 fb43 8cfd a543 e945 7944 c6e4 6a44
00000040: 713f 1643 e6cf d243 5e1d 8243 5e0e bf43
00000050: b872 0644 2747 a943 c0e9 b943 95ac d743
00000060: 80cd 6743 c174 9343 62b7 8b43 8370 cb42
00000070: 4b68 f943 a833 8b43 8f13 c943 87e6 7844
208.62907 354.66922 851.1256 1123.8339 183.53377 382.12607 68.0003 297.6951
351.23676 78.393295 469.20465 60.905205 502.38953 331.98083 997.09235 939.5746
150.24782 421.6242 260.22943 382.11224 537.7925 338.55588 371.82617 431.3483
231.80273 294.91214 279.43268 101.71975 498.8148 278.40356 402.1528 995.602

conv_block.4.weight f4 [64, 32, 3, 3]
00000000: af54 adbd 442a 9a3d 478e d03b 6511 85bd
00000010: 3abd 373d 1dd7 4bbc 8454 1a3a 26b8 cf3c
00000020: 4151 f0bc 3166 cebc 24bc 07be 58f7 cabb
00000030: 31f4 04bd 4854 28bd f421 1f3b 0beb d7bc
00000040: 6379 d0bd 2516 bbba 4486 903c 910d c03c
00000050: 9791 87bc 9ced 75bd 3db4 783d a390 e53c
00000060: be9f 47bd ef03 593c 8931 d0bc d78b 50be
00000070: 1566 ab3d 64ed e0bb 2656 77be 4c5b 253c
00000080: 3830 833a a36e 69be 6f54 01bd 2b23 a83c
00000090: 7c17 6cbd 69bb e73c 5758 1ebc f542 00bd
000000a0: f54e 653d ac67 fbbb 0392 c6bd 240b b03d
000000b0: 71c8 1bbd 1d35 953d 217e d5bc e106 a83c
000000c0: c2b0 cf3c 2b59 a4bc 7962 073d 035f a93d
000000d0: 6b82 abbc 83af 563d 15f7 c5bc f4e2 7cbd
000000e0: ea26 433c 959e 06be 069f c8bc 452a 113b
000000f0: b417 a6bd 8d10 0d3d afee 76bd d08b 4abd
00000100: 821b 44bd 9139 a93d 1b1a 83bd 1d9a 6ebd
00000110: fc72 953c fa62 08bd 8d0f e13c d939 843d
00000120: 0411 083c bba4 0abe 1415 4fbd e43a 723c
00000130: 1214 2bbe e0a5 373d b287 e3bc fb14 2abe
00000140: e8f3 24bd 25c0 d83c 71b3 87bc 3ce0 483d
00000150: 9e06 a63d e6e3 853d 4de4 863d 647d e03d
00000160: 25f3 59bb 1ab7 b73d 031c 8bbb e565 45bd
00000170: b570 0fbd 769a 69bd e26a 9d3b fe7a 113c
00000180: 533e 66bd 94af 493d e3cd 2dbc 2250 96bd
00000190: 5cac 0dbb 4eef a43c 2a18 4abd c009 1b3d
000001a0: 8b27 ed3d caac 57bd 1e12 e33b 158b 253e
000001b0: 0b4b cb3c ee4f 483d 8221 cbbb e52f 8bbc
000001c0: 19a4 9d3d 773d b5bc 7f79 173c 69c1 3b3d
000001d0: d8dd 8dbd 060c 18be b7a6 f3bb 85f4 f6bc
000001e0: fd99 02bd dd88 d63c 751e 0d3d 6ebf 91bc
000001f0: 263a dcb9 e89a d23b c68d 453d 7f2b 79be
00000200: e719 77bc 7871 f9bc db45 76be acfa fe3d
00000210: a923 14bd 71bb 5ebe b105 f33d 386e bdbc
00000220: 8f97 64be f7c7 8d3d d967 2bbd 7104 0cbe
00000230: e063 953d 0098 36bd 12a6 30be 1f1f 6e3a
00000240: 0e7f f2ba cbca 3bbd 6e91 22bc 32fc fb3c
00000250: cbcd 8ebc f420 9c3c 02e9 943d 2927 223c
00000260: 527a 223c 2168 cfbc 0f96 80bd 7a1a a23c
00000270: 08c6 a5bb c84a a43a e984 3c3d 004c 823c
00000280: cff9 abbc 65d4 913d 8dd2 c8bd 82aa 8d3d
00000290: 6465 01be 841e 64bd 4b76 173d 68e0 13be
000002a0: 2d02 60bd 22a7 56bd 3c9d f6bd 0838 d5bc
000002b0: 6787 5cbd aeaa 6abd d009 39bd 7221 67bc
000002c0: 321e 0abd 46a4 a4bc 16a3 81bd f511 f9bc
000002d0: 5ad7 25bd 7113 013d b2b5 c0bb 817d 35bc
000002e0: dbd8 833d b828 30bc 6ce4 76bc 681e 2abd
000002f0: 000e ebbb ce14 7b3d e460 02be 273c 57bc
00000300: fa8d 04bd 3154 fcbd d471 743d a36f 8f3d
00000310: 51f9 0dbd b01c 84b8 b0a9 26bc 06af 87bd
00000320: 8555 45bd 6cc6 2e3c e1fb ffbd da97 963d
00000330: a57e c7ba f18d 8bbd aa2e 8b3d c711 73bd
00000340: 3b35 493d d27a fbbd 18c7 51bc 76ca 5dbc
00000350: c540 04be 3401 84bd ea0c 843d c343 24be
00000360: 6646 483d d481 8bbd 6254 143d 3288 083d
00000370: 80e9 1f3d ad50 bd3d be20 273c 5168 08bc
00000380: d895 e13c 1adb 313a 5dc5 1fbd e02f 4f39
00000390: 7465 193d cd59 85bb f13c 01bd 6f6b 2e3d
000003a0: 4c6a 4bbd 236d ffbc dcf0 3abd 279e a4bd
000003b0: a716 6e3c c497 ac3c d829 98bb 3b8f 1bbc
000003c0: e928 4c3b 729d cc3c 2fe5 903d 6438 93bc
000003d0: 4b37 5ebd 347e 953c 5aa1 803d 19df 47bd
000003e0: c012 8a3d a74b aa3d 1177 19bd ff54 1d3d
000003f0: f590 ac3d ccdb 03be 835a 38bc 4161 0a3d
-0.08463418 0.07527593 0.006364617 -0.06497458 0.044858195 -0.012441424 0.00058872276 0.025356364
-0.02933562 -0.025195213 -0.13255364 -0.0061940365 -0.03245944 -0.041096002 0.0024281712 -0.026357194
-0.10179403 -0.0014273567 0.017642148 0.023443969 -0.016548915 -0.060041055 0.060718764 0.02802307
-0.048736326 0.013245567 -0.025414245 -0.20365845 0.0836908 -0.0068642367 -0.24153957 0.010092568
0.0010008877 -0.22796111 -0.031574663 0.020524582 -0.057639584 0.028287606 -0.009664617 -0.031313855
0.055983502 -0.0076722708 -0.09695818 0.08595875 -0.038032953 0.07285521 -0.02606112 0.020511093
0.02535284 -0.02006205 0.033052895 0.08270075 -0.020936212 0.052413475 -0.02416567 -0.061739877
0.011911133 -0.13146432 -0.02448989 0.0022150439 -0.0810999 0.034439612 -0.06028622 -0.04944974
-0.047877796 0.08262933 -0.064014636 -0.058252443 0.018243305 -0.033297516 0.027473236 0.06456346
0.008304838 -0.13539402 -0.05055721 0.014784548 -0.16706875 0.044835925 -0.027774666 -0.16609566
-0.04027167 0.02645881 -0.016565057 0.04904197 0.08106731 0.06537609 0.06586514 0.10961416
-0.0033256498 0.08970471 -0.0042452826 -0.048192877 -0.035019595 -0.05703207 0.004804001 0.008879421
-0.05621178 0.04923971 -0.010608169 -0.07339503 -0.0021617627 0.02013364 -0.04933945 0.037851095
0.11579808 -0.05265502 0.00692965 0.16166337 0.024816057 0.048904352 -0.006199063 -0.016990611
0.07697315 -0.022124035 0.0092452755 0.045838747 -0.06927079 -0.14848337 -0.0074356454 -0.030145893
-0.031885136 0.026188308 0.034452874 -0.017791476 -0.00042004994 0.0064271577 0.04823091 -0.24332999
-0.015081859 -0.030449614 -0.24050085 0.124501556 -0.03616682 -0.2175119 0.1186632 -0.023123845
-0.2232344 0.06922906 -0.041847084 -0.1367357 0.0729444 -0.044578552 -0.17250851 0.0009083617
-0.0018501 -0.045847695 -0.009922368 0.030759905 -0.017432114 0.019058682 0.07271005 0.009897032
0.009916859 -0.025318207 -0.062786214 0.019788016 -0.0050590076 0.0012534494 0.04602519 0.01590538
-0.020993141 0.07120589 -0.098057844 0.069172874 -0.12636334 -0.055693164 0.036978047 -0.14441073
-0.054689575 -0.052405484 -0.12041709 -0.026027694 -0.053840067 -0.05729168 -0.045175374 -0.014107095
-0.033720203 -0.020097863 -0.06329934 -0.03040407 -0.04048858 0.03151268 -0.005881035 -0.011077286
0.06437846 -0.010751896 -0.015069108 -0.041532904 -0.0071733 0.061299138 -0.12732273 -0.0131369
-0.032361962 -0.12320746 0.059678867 0.07003715 -0.034661595 -6.299594e-05 -0.010172293 -0.0662518
-0.04817726 0.010667425 -0.12499214 0.07353182 -0.0015220238 -0.068141825 0.0679601 -0.059343126
0.04912303 -0.122792855 -0.012803815 -0.01353704 -0.12915333 -0.06445542 0.06447776 -0.16041474
0.048895262 -0.06811872 0.036213286 0.03333301 0.039041042 0.09243903 0.010200677 -0.008325652
0.027537271 0.0006784663 -0.03900658 0.00019758893 0.03745027 -0.004069543 -0.03155226 0.042582925
-0.04966192 -0.03117997 -0.045639858 -0.08037978 0.014531768 0.021068461 -0.00464366 -0.009494598
0.0031152314 0.02497742 0.07074963 -0.017971225 -0.05425195 0.018248655 0.06280775 -0.048796747
0.067418575 0.08315211 -0.037467066 0.038411137 0.08426086 -0.12876815 -0.011252048 0.033784155

conv_block.4.bias f4 [64]
00000000: ef37 293b 64b2 d23d 5fd0 253d cd4c 1e3d
00000010: c8b7 1abc be13 4a3c 2d2b 7abd 0b07 833d
00000020: e511 8abb 64a8 6b3d 9954 aabd ad17 b2bc
00000030: dec7 84bd bc8e dcbd b8d1 7cbd 9cdd 5a3d
00000040: 1cb7 5dbd e6c7 a13c ad5e 153d 86bf a6bc
00000050: fcc9 e93d ac19 693c f3a6 d5bd 21ed a13c
00000060: 6028 e93a 27e1 ab3d 6927 86bd 9fd4 ad3d
00000070: fa13 37bd 3bd3 933d 059e 6e3d 52e3 99ba
00000080: c311 a2bd 1b89 863d 4b60 69bb ada2 133b
00000090: 4ef2 b23d 3740 9dbc 8ef3 afbd 5d67 a23d
000000a0: e8bc 54bc 720e 19bc 8d9c fcbc 8878 293c
000000b0: f91c 95bd 7136 2e3d dedc ff3c a48d 8f3d
000000c0: 1ac3 00bd 0dba b13d ba65 873b 9ca4 be3d
000000d0: ae02 663c 20ac 79bc 24de 7c3d daed 173d
000000e0: 6f20 f6ba e9b9 ed3d edef de3c 0ad0 423b
000000f0: f2e4 0a3d 690d 19bd 44a6 afbd fa90 a93c
0.0025820693 0.102879316 0.04048192 0.03864746 -0.009443231 0.0123338085 -0.061076332 0.06397828
-0.004213559 0.057533637 -0.08316917 -0.021739805 -0.06483434 -0.10769412 -0.06172344 0.053434
-0.054129705 0.01974864 0.036467243 -0.020354997 0.114154786 0.014227312 -0.10432234 0.019766392
0.0017788522 0.08392554 -0.06550486 0.0848782 -0.044696786 0.072180234 0.058256168 -0.001174072
-0.07913544 0.065691195 -0.0035610374 0.0022527382 0.08737622 -0.01919566 -0.08591376 0.07929871
-0.012984492 -0.009341823 -0.030836368 0.010343678 -0.07280917 0.042532388 0.031233247 0.07009438
-0.031436063 0.086780645 0.004132 0.093087405 0.014038725 -0.015238792 0.061735287 0.037092067
-0.0018777977 0.11607725 0.027214015 0.0029726052 0.033909746 -0.037366305 -0.085766345 0.020699013

conv_block.5.weight f4 [64]
00000000: ab5b 7c3f 0499 6b3f 2670 7d3f fd60 853f
00000010: 10e5 633f 188a 673f 4a4d 7e3f 37fe 763f
00000020: a9c6 733f 78ed 773f cc22 7e3f 1a3a 713f
00000030: 058f 773f 4691 733f 0b7a 6e3f 6448 7b3f
00000040: 13ab 733f d4e3 753f 2478 6c3f 3533 733f
00000050: 915d 813f d942 803f 8eeb 693f ab26 773f
00000060: 6718 6f3f d255 6e3f 423b 733f 7907 753f
00000070: 1ca7 733f 8f12 743f 89d9 793f 4d58 6e3f
00000080: 72d2 683f 5d7e 803f 3827 783f 77fb 663f
00000090: a660 6a3f fb44 743f 0fc9 733f 6e83 803f
000000a0: 1911 843f 9268 713f 93a5 6f3f 45d3 683f
000000b0: 496d 673f e514 753f cf05 703f 78b4 763f
000000c0: 3f95 773f df59 753f ac58 6d3f b92b 703f
000000d0: 6f4c 6b3f 47fd 693f 6eee 7d3f d06e 733f
000000e0: 4d6a 753f b8ac 733f 6f4b 813f 709b 6a3f
000000f0: 0cf6 7d3f 500c 763f a7db 8f3f 9576 6e3f
0.98577374 0.9203036 0.9899925 1.0420223 0.89021397 0.9044509 0.99336684 0.9648165
0.95225006 0.96846724 0.99271846 0.9422928 0.96702605 0.95143545 0.9315497 0.98157334
0.95182914 0.96050763 0.9237082 0.9500001 1.0106679 1.00204 0.9137505 0.9654338
0.9339661 0.930997 0.95012295 0.9571453 0.95176864 0.9534082 0.9759756 0.93103486
0.90946114 1.0038563 0.96934843 0.90227455 0.91553724 0.95417756 0.95228666 1.0040109
1.0317718 0.94300187 0.9361202 0.9094737 0.9040113 0.9573501 0.93758863 0.96369123
0.96712106 0.9584026 0.9271343 0.93816715 0.91913503 0.91402096 0.9919194 0.9509096
0.9586533 0.9518542 1.0101146 0.9164343 0.9920356 0.9611254 1.1238908 0.9314969

conv_block.5.bias f4 [64]
00000000: 1957 5fbe 2d17 58bd 0f2f 57be 23ee 27be
00000010: 9b35 dbbe 9a44 93be a543 a6be 8cd5 06be
00000020: 2a64 79be 97ea bfbd 6140 0dbe 1905 bebe
00000030: 8de2 3bbe f671 45be 1777 c1be 903d 62bd
00000040: fdcd 8dbe 2066 acbe 2d6d 15be 96d3 e3bd
00000050: 4996 2abe ce55 a2be 0298 cbbe 6ee9 15be
00000060: 922a 78be d017 d5bd 5a28 7abe 5a48 a5be
00000070: 39ff cbbe fa6d 6abe 5b6f acbe de4e 34bd
00000080: 63a2 c0bd 58c3 a1bd d88a cfbd 5344 b0be
00000090: 22d3 04be 9ef9 b3be 8e92 30be d558 05be
000000a0: ff1c 6ebe b371 eabe 65e3 26be b9f6 50be
000000b0: 5605 d0be 9b5d 893d 432a c33d dfb5 e7bd
000000c0: 6d78 b3bd cc9c 153d 9370 80be 9827 8abe
000000d0: a1f8 f5be f0f3 803d 85c6 31be 5149 01be
000000e0: 3c45 76be 62d8 14be a62a 4dbe 4b77 9f3d
000000f0: 3b15 8dbe e993 0cbe c533 51be 2e9a 55be
-0.21810569 -0.052756477 -0.21014045 -0.16399436 -0.42814335 -0.28763276 -0.32473484 -0.13167399
-0.24354616 -0.09370916 -0.1379409 -0.37113264 -0.18348141 -0.19281754 -0.3778617 -0.05523449
-0.2769622 -0.33671665 -0.14592429 -0.11124341 -0.16658892 -0.3170609 -0.3976441 -0.14639828
-0.2423499 -0.104049325 -0.24429455 -0.32281762 -0.39843157 -0.22893515 -0.33678707 -0.044020526
-0.09405973 -0.07898587 -0.10133904 -0.34427127 -0.12971166 -0.3515138 -0.17243406 -0.13022168
-0.23253249 -0.4578987 -0.16297682 -0.20406617 -0.4062907 0.06707307 0.09529545 -0.11313986
-0.08763204 0.036526486 -0.25085887 -0.26983333 -0.4804125 0.062965274 -0.17360885 -0.12625624
-0.24049848 -0.14535668 -0.200358 0.07786425 -0.2755526 -0.13728298 -0.20429905 -0.20859596

conv_block.5.running_mean f4 [64]
00000000: 75ce 97bf 3aac e6be 9d46 bcbf c3db febf
00000010: d3eb cebf 902b 84bf 8ad2 15c0 6d1f fcbf
00000020: af2f dcbf ec0b 0cc0 8431 2cc0 24d1 2cc0
00000030: c486 0ac0 3192 5dbf edad c9bf 89f4 1ec0
00000040: 1219 cebf 4a81 d3bf 729b bcbf 0356 d4bf
00000050: af7f 0cc0 aa43 0ac0 b1ef 10c0 54e7 25c0
00000060: 3256 6fbf 33dd 01c0 ed29 99bf 2c58 02c0
00000070: 2225 04c0 40e2 4dbf 2c85 e6bf f708 31c0
00000080: 91c4 edbf 7226 06c0 9cad 77bf 7ec6 c5bf
00000090: aa1a 0cbf 880c dbbf 6272 2bbf 2922 16c0
000000a0: b491 2dc0 1536 d3bf 3643 0ebf 9e2a f8bf
000000b0: 8076 bfbf 516f 35c0 093d 42c0 107f 00c0
000000c0: f636 1bc0 fb6e 08c0 09ec 8c3f 344e cabf
000000d0: f4ef e8bf ba3e 48c0 647c e4bf f321 37c0
000000e0: b7bb e8bf f896 f9bf 8ef7 1ac0 ce62 40c0
000000f0: 1288 f8bf e26f 77bf 6b5c f8bf 2615 5bbf
-1.1859881 -0.45053273 -1.470905 -1.9910816 -1.6165718 -1.0325794 -2.3409753 -1.969709
-1.7202052 -2.1882277 -2.6905222 -2.700265 -2.1644754 -0.86551195 -1.5756203 -2.4836752
-1.6101401 -1.6523831 -1.4734938 -1.6588749 -2.1952932 -2.16038 -2.2646296 -2.5922441
-0.934909 -2.029126 -1.196592 -2.0366316 -2.0647664 -0.80423355 -1.8009391 -2.7661722
-1.8575612 -2.0960965 -0.9674928 -1.54512 -0.54728186 -1.7113199 -0.6697141 -2.345835
-2.712018 -1.650088 -0.55571306 -1.9388006 -1.4958038 -2.8349192 -3.0349753 -2.0077553
-2.4252295 -2.1317737 1.1009532 -1.5805116 -1.8198228 -3.1288285 -1.7850461 -2.861447
-1.8182286 -1.9499197 -2.4213595 -3.0060306 -1.9416525 -0.96655095 -1.9403204 -0.85579145

conv_block.5.running_var f4 [64]
00000000: 33e9 6b40 e240 2240 cec2 e340 945e 9240
00000010: 9eed 3940 9a42 9040 2bae b940 414b 6041
00000020: c0b5 b240 b6b6 1841 800e 6441 5c3b d540
00000030: efba 3441 f2bc 1b40 67d0 4940 dd35 0c41
00000040: 5309 4a40 33e3 8640 2ad8 8c40 f018 7c40
00000050: 71d2 a440 fcae 8440 bf46 b040 377f 8741
00000060: 5768 8d40 471c fe40 7f3d 0b40 3150 a640
00000070: 9f60 b940 06b5 2c40 8696 ae40 4a6f 2441
00000080: e4c7 8e40 28fc ab40 0775 af40 b890 1440
00000090: a761 5c40 bd66 8340 8b31 6c40 28ed 7d41
000000a0: e782 d240 5b60 7440 239e 0d40 3404 8240
000000b0: 79ad 1b40 3612 d940 235e 0441 eeb4 2441
000000c0: 7950 1c41 9c49 ec40 9811 6340 fb9e dd40
000000d0: 00ea 8740 3759 0f41 acba 8a40 9d69 8b41
000000e0: bb74 9440 3e84 7c40 4193 6641 a199 0f41
000000f0: 0d93 8240 9a0a 4d40 a969 6e40 2fa2 1b40
3.6861084 2.5352101 7.11753 4.574045 2.905128 4.50813 5.8025107 14.018373
5.5846863 9.544607 14.25354 6.663496 11.295638 2.4334073 3.1533449 8.76315
3.156819 4.2152343 4.401387 3.939022 5.1506886 4.1463604 5.508636 16.937117
4.418987 7.940952 2.1756284 5.197289 5.7930446 2.6985488 5.4558744 10.27717
4.4619007 5.374531 5.4830356 2.321333 3.4434602 4.1062913 3.6905239 15.870399
6.5784793 3.818381 2.212777 4.063013 2.432463 6.783473 8.272983 10.294172
9.769647 7.3839855 3.5479488 6.925657 4.2473145 8.959281 4.335287 17.426569
4.6392493 3.9455714 14.410951 8.975007 4.0804505 3.203772 3.725199 2.431774

conv_block.8.weight f4 [128, 64, 3, 3]
00000000: 3e16 eebc 68f8 80bd 7aa4 26bd 4bc4 c4bd
00000010: dc22 cfbd 1725 7dbd c473 9fbd 2106 73bd
00000020: f466 10bd 1400 4fbd f1bc ccbc e07b 7a3b
00000030: 0330 65bd 6a86 0cbd 0630 1fbd 66b8 37bd
00000040: 21cd cebc fc4a 9e3c d234 423d e107 c5bd
00000050: 4ddd 863d c06a 78bc 2b54 a7bd 1641 3b3d
00000060: facd 753b 06e6 28bd 1176 9c3d dd4c 34bd
00000070: 225a 3c3d 245d 733d 50ee ffbc cd3d 5a3d
00000080: 5ab3 d53c 4c01 883c 75fd e53d 3621 903d
00000090: f33d 75bd 3508 5abd d364 bfbd 39c8 37bd
000000a0: 3504 1cbc 006b adbd 54a8 60bc 149e 883c
000000b0: a59d 8abd 3e14 53bd 1ae9 2fbd 143a 53bd
000000c0: 0ce8 82bd 80ba 88bc 84e3 aabd 529d 45bd
000000d0: e587 7dba 7401 95bc 1e3f 813c d709 3e3d
000000e0: fbf2 8b3c e3b3 40bd 1634 ae3b ff47 293d
000000f0: ee20 663d 6948 073d 2fc3 a13d dadc d8bd
00000100: be6b 09bb e685 30bd d7ec e5bd e3f7 efbc
00000110: 2a7a c3bd 6a97 acbd d71b 553c 848c aabc
00000120: f92f 983c 782e 12bd 7272 97bd 775a 93bc
00000130: 159e 59bd 1bf3 c2bd ba24 aebb a8e3 40bd
00000140: 9072 bdbd 91f8 bebc dcf9 b83c c460 2cbd
00000150: c9cd 2fbd 95dd 263c 3911 8abd a2bd 9cbc
00000160: 24d5 303c 4f9d 32bd 89f4 2dbd 889f 923c
00000170: 8b88 33bd 8006 bebd 2dc0 a73b 2699 95bd
00000180: 2286 b0bd e3e6 ad3b 6e73 74bc 6434 b33d
00000190: a248 623e d341 143e 107f 743d 7d5b 1f3e
000001a0: 7819 193e 441d df3d ad6c 393e 80aa 133e
000001b0: fc29 a03c 050a 453d 117a b43c 4a36 56bd
000001c0: 3a3f 023d de6b 21bc 9c5f 21bc 5230 a43c
000001d0: 649a 4b3d 22b3 4ebd c76c 323d 6524 cdbc
000001e0: 5185 c4bd 37ab c53c dd46 aabd 5398 b6bd
000001f0: 6e8a af3c ac94 93bd cd77 073b 62d3 cbbc
00000200: 304e 9ebd 0cd5 d3bc c49b 10bd c370 c6bd
00000210: 1501 4ebc b811 3abd 2e07 8ebd 1b86 03bd
00000220: a430 763c 2c70 acbc de98 08bd 78e3 ef3a
00000230: f43f 29bd d587 8a3c 6ec0 e53c 1b67 d1bc
00000240: 43fd adbd 7792 bdbc 5ff3 69bd abcc dbbd
00000250: 1bcb 9fbc 093c 89bd 5c41 d9bd 0ca1 3cbd
00000260: b5f4 a7bd eb0f e4bd cb7d b7bd fc62 3dbd
00000270: c906 c7bd 472f 9bbd 4e7d 9bbc f38d abbd
00000280: 88eb 6abd 1a69 f13a 9081 3b3d 1e18 c53b
00000290: e724 17bd 2b9a 103c 0528 6dbb ce78 13bd
000002a0: 77b9 de3c c2d2 85bc d65e 4fbd b7fd 90bc
000002b0: d964 f13d 190f f83c 4cd4 5ebd 6753 af3d
000002c0: 60d5 deb8 2913 59bc 9fe1 c33d 7571 763c
000002d0: 46e6 5a3d 6e15 f93d 10c7 bc3d dfa6 413d
000002e0: cc24 ce3d 7421 d63b 9393 b93d c673 a13d
000002f0: d013 533d 4f6c 93bb a4a6 883d 18cd 733d
00000300: abc5 ebbc cb32 8c3c 0c5a 2bbc e7ea 1d3d
00000310: 169e 053e ed86 b33d 141c 17bd dd6d b2bc
00000320: e036 9bbd 39c2 bdbd 9910 6abd 7a7b 5fbd
00000330: 8864 80bd 3f85 3bbd e848 a9bd fc7b 1dbd
00000340: be68 8ebc b538 10bd a1b6 2ebd 6458 6a3a
00000350: 59a8 3fbd 6abb 34bd cbde dd3c 237e 2fbc
00000360: c7a3 2ebd d396 e0ba 822e 85bc 8e19 8bbd
00000370: e81f 603b dae3 c6bc 7efc 44bd 671a e33c
00000380: 5ad4 60bc 7b23 9fbd adaf cb3c 07b0 153c
00000390: ea0d ddbd 0054 6538 c149 36bd 459e 96bd
000003a0: 98c8 a43d 2cb8 213d 0890 48bd eff7 febc
000003b0: ca8a 63bd 17a6 adbd 5cdc 3ebc 512e 97bd
000003c0: 4d8e 8cbd e52b a8bc 8aee 3fbd 2d91 f2bd
000003d0: ee6b d2bd eb1c 1bbd 1dc4 fbbd aa8b e3bd
000003e0: dc75 95bd 606d f2bd 7731 d6bd 2066 77bd
000003f0: 8815 d7bd b3be c4bd c305 68bd 0a6c c9bd
-0.02906334 -0.0629738 -0.0406842 -0.096077524 -0.10114071 -0.06180295 -0.077857524 -0.059332017
-0.035254434 -0.050537184 -0.024992438 0.0038220808 -0.05595399 -0.034307875 -0.038864158 -0.04485359
-0.025244297 0.019322865 0.047413655 -0.096206434 0.065851785 -0.01516217 -0.08170351 0.045716368
0.0037506805 -0.041234992 0.07639707 -0.044018615 0.045984395 0.059414998 -0.031241566 0.053281594
0.026086498 0.01660218 0.11229984 0.070375845 -0.059873533 -0.053230483 -0.093454026 -0.04486868
-0.009522487 -0.08467674 -0.013712008 0.01667694 -0.067683496 -0.051532976 -0.042946912 -0.05156906
-0.06391916 -0.016690493 -0.083441764 -0.048245735 -0.0009671434 -0.01818917 0.015777167 0.046396103
0.017083636 -0.047046553 0.0053162677 0.041328426 0.056183748 0.03302804 0.078985564 -0.10588999
-0.002096876 -0.043096446 -0.11226814 -0.029293006 -0.09544785 -0.084273174 0.013007126 -0.020818956
0.018577563 -0.035688847 -0.073948756 -0.017987473 -0.053129274 -0.09519025 -0.0053144367 -0.04709211
-0.09250367 -0.023311885 0.02258008 -0.04208447 -0.04292086 0.010184665 -0.06741566 -0.019133393
0.010793004 -0.043607052 -0.042469535 0.017898336 -0.04383139 -0.092785835 0.0051193447 -0.07304601
-0.08619334 0.005307065 -0.014920099 0.08750227 0.2209802 0.14478235 0.05969149 0.15562244
0.14951122 0.10894254 0.18107863 0.1442051 0.01955127 0.04810526 0.022030862 -0.052297868
0.03179858 -0.009852378 -0.009849455 0.020042572 0.049707785 -0.050463803 0.04356077 -0.025041768
-0.095957406 0.024129493 -0.08314297 -0.08915772 0.021428313 -0.07206091 0.0020670772 -0.024881069
-0.07729757 -0.025858425 -0.0353048 -0.09689476 -0.0125735 -0.045427054 -0.06934963 -0.032110315
0.015026245 -0.021049581 -0.03334891 0.0018302044 -0.041320756 0.016910473 0.02804586 -0.02556186
-0.084955715 -0.023141129 -0.057116862 -0.10732397 -0.019506028 -0.06700904 -0.106081694 -0.046052024
-0.08200971 -0.111358486 -0.0895954 -0.046236977 -0.09718091 -0.07577377 -0.018980648 -0.08376684
-0.057353526 0.0018418164 0.045777857 0.006014838 -0.036900427 0.008825819 -0.0036187184 -0.03600388
0.027188046 -0.016335849 -0.050627552 -0.017699106 0.11786813 0.030280637 -0.05440168 0.085608296
-0.00010625529 -0.013249197 0.09564518 0.015041699 0.053442262 0.121622905 0.09217656 0.04727828
0.10065612 0.0065347496 0.09061351 0.0788341 0.051532567 -0.0044989954 0.06672409 0.059521765
-0.028780779 0.017114064 -0.010458481 0.0385541 0.13048586 0.087659694 -0.03689201 -0.021780903
-0.07578826 -0.09265561 -0.057144735 -0.054561116 -0.06269175 -0.04578137 -0.08265859 -0.03844832
-0.01738393 -0.03521033 -0.042654637 0.0008939563 -0.04679141 -0.044124044 0.027083775 -0.010711226
-0.04263666 -0.0017134793 -0.016257528 -0.067919835 0.0034198705 -0.02427857 -0.048092358 0.02772255
-0.013722504 -0.07770439 0.024864042 0.0091362065 -0.107936695 5.4676086e-05 -0.04450393 -0.07354406
0.08046073 0.03948228 -0.048965484 -0.031124083 -0.05555228 -0.08478945 -0.011649217 -0.07381881
-0.06863079 -0.020528743 -0.046858348 -0.11844096 -0.10274492 -0.037869375 -0.12293265 -0.11110623
-0.072978705 -0.11837268 -0.104586534 -0.06040013 -0.10502154 -0.096066855 -0.05664612 -0.0983506

conv_block.8.bias f4 [128]
00000000: a3bd 933d fdd1 c9bc 3c73 caba 0f6e 03be
00000010: f926 9c3c 533c c53c 8d9c 373c 48d0 353d
00000020: 05df fe3c f2ce 513d 71cc 04bd 8e57 773b
00000030: 9a0e 0b3d e5cc 163d ad19 353d 10ac 3dbd
00000040: 9df5 bfbc 795f ba3d 938f 07bd 0a99 c2bc
00000050: 7c46 f8bc 3ba8 6c3c a1a3 28bc 4108 afbc
00000060: 60dc 5c3a 17a1 91bd 901b 5dbd 5964 a5bd
00000070: aba5 aebd 3e58 ed3c 58ef 373b 0117 94bb
00000080: 9555 88bd 6e96 bbbc ffc3 c93c c3d9 8cbd
00000090: 8826 a43a e154 03bd e3d5 b5bc 8706 36bd
000000a0: c348 1fbc 74ca 5cbc ece8 b2bc bd4b 8fbd
000000b0: aae1 17bd 5f03 ec3c 26fd c93d 9c27 6cbc
000000c0: 6c70 023d 0e0d d4bc e656 3dbc 2234 ac3d
000000d0: ba31 f73b a977 913d b8c3 cc3d 3063 dbbc
000000e0: d981 cdbb b9fd 78bc 627c 553c 6f8b d13c
000000f0: 649c a2b8 d821 363d f88e aa3d fd7b bb3c
00000100: 53ec e73c ad40 e7bc 395b dbbb db4d 5abb
00000110: d3ba 583d 3d1d cb3c 569e b73c 19da 9f3d
00000120: 2b93 81bd c33e debb ff71 d8bc 3065 47bc
00000130: d8f5 b03a f479 9f3a 424b b23c c8b9 903a
00000140: fc6d 203d b07c a13d 1461 2ebd 6a40 7c3d
00000150: be0b 153d ec94 223d 9270 8c3c 10bb b43d
00000160: f944 a9bc 6fdd a83c 2696 b0bd 7c7d 8d3a
00000170: 6c7d 6c3d 7258 813b 70c6 c9bc dafd 0abd
00000180: 7244 6b3c 80ca 93bc 976e dfbc 06c4 ec3c
00000190: cb0b 67bd 53b4 8ebd 1712 523d 4071 a93d
000001a0: 3d36 a1bd 5567 c5bd 611b d1bc 2f54 3e3d
000001b0: 855c a73d 418f 9c3c f147 53bc 7db8 dc3c
000001c0: 145e 6f3a fb85 203d 8de4 91bc a0a5 ca3c
000001d0: 53d6 cdbd ccdf 703c 96e6 7c3d 92d6 9c3c
000001e0: 2628 aebb 9340 c93c 0b13 933c 8b1c 893c
000001f0: 9086 8abc 9eab 76bc b672 603d 9052 413b
0.07213905 -0.024636263 -0.001544572 -0.12834953 0.019061552 0.024076616 0.011206758 0.044388086
0.031112203 0.05122275 -0.032421533 0.0037741396 0.033949472 0.036816496 0.04421394 -0.04630667
-0.023432547 0.09100241 -0.033095907 -0.023754615 -0.030307047 0.014444406 -0.010292918 -0.02136624
0.00084251724 -0.071108036 -0.053981364 -0.080757804 -0.085276924 0.028972741 0.0028066244 -0.004519344
-0.066569485 -0.022898879 0.024629591 -0.06877472 0.001252369 -0.03206337 -0.022196716 -0.04443982
-0.009721938 -0.013476003 -0.021839581 -0.06996868 -0.037080444 0.028810201 0.09862737 -0.0144137405
0.031845495 -0.025885131 -0.011556363 0.08408381 0.0075437697 0.071029015 0.09998268 -0.026780695
-0.0062715826 -0.015197211 0.013030143 0.025579182 -7.753892e-05 0.04446587 0.083280504 0.02288627
0.02831093 -0.028229082 -0.006694224 -0.0033310566 0.052912544 0.024794215 0.022414368 0.07805271
-0.06326898 -0.006782384 -0.026421545 -0.012170121 0.0013501002 0.0012167082 0.021764401 0.0011041695
0.03916739 0.078851104 -0.04257305 0.061584868 0.03638815 0.039692804 0.017143521 0.08824742
-0.020662772 0.0206134 -0.086223885 0.0010794844 0.0577368 0.003947311 -0.024630755 -0.033933498
0.01435958 -0.018040895 -0.027274413 0.028902065 -0.05640773 -0.06967988 0.051286783 0.08273554
-0.07871673 -0.0963885 -0.02552575 0.046467002 0.081719436 0.019111278 -0.01289557 0.02694344
0.0009131145 0.039190274 -0.017809177 0.02473718 -0.10050645 0.014701795 0.06174334 0.019145284
-0.0053148447 0.024566924 0.017953416 0.016737243 -0.016909868 -0.015055565 0.054796897 0.0029498674

conv_block.9.weight f4 [128]
00000000: 3713 893f 4458 873f 93ad 803f c655 873f
00000010: 80a1 843f eac9 823f 008d 853f 248b 873f
00000020: d048 833f a458 853f 30bb 823f 1a45 863f
00000030: c36b 873f 3cea 7d3f 3ae8 873f dbe0 883f
00000040: ef0a 893f 74e6 863f 8e3e 863f f565 833f
00000050: 7832 853f 4134 833f 0845 7c3f 1246 873f
00000060: 3db0 823f 3b38 863f 965c 813f c939 883f
00000070: 481d 843f eac3 873f b657 833f e636 863f
00000080: c0d8 863f 12b3 833f de6e 873f 7be6 843f
00000090: c557 843f c5f5 843f 3765 863f 93c7 823f
000000a0: 3fa6 843f 1c87 873f 6c48 883f ed1d 873f
000000b0: 56df 863f b67e 863f 7f24 8a3f b6d2 863f
000000c0: 5280 853f 3135 853f 19db 893f e394 863f
000000d0: 50ea 843f 2c65 853f 9afb 873f 2c67 853f
000000e0: d73d 863f e167 883f 0d3e 833f 35f3 893f
000000f0: 5b27 873f b476 873f c5a1 893f 5859 863f
00000100: 0e64 8a3f 2dcf 873f 70cc 843f 5863 873f
00000110: 6d02 8a3f ff70 813f c258 883f 3a44 873f
00000120: 6ff3 863f 2a62 7e3f a8e7 853f f58c 863f
00000130: a184 873f 4d58 853f 869a 853f ff6b 843f
00000140: 81bf 833f cacc 823f a17c 883f 8f7e 853f
00000150: cb5c 893f 3f58 833f 955d 873f 5152 833f
00000160: cb1b 883f cbf8 863f 5b20 853f fa6b 883f
00000170: 07dd 863f c7d4 853f 4db3 863f b674 883f
00000180: 842d 873f 3b03 883f fb48 873f 06e9 843f
00000190: b038 893f f9ba 853f f555 863f a5b4 883f
000001a0: e8ac 893f c43b 853f b2bb 853f 7c9b 873f
000001b0: 43ae 863f 1e4c 843f 6908 853f b077 7e3f
000001c0: 1999 883f 4187 873f 5c4f 863f 3b21 843f
000001d0: 1a67 863f f8e9 883f 8c79 853f 93bb 853f
000001e0: 761e 8a3f 6781 863f b994 873f 8a1b 863f
000001f0: a6d5 853f 5068 833f a9d9 873f a6c6 833f
1.0708989 1.0573812 1.0052971 1.0573051 1.0361786 1.0217869 1.0433655 1.0589337
1.0256596 1.0417676 1.0213375 1.0489838 1.0579761 0.9918554 1.0617745 1.069362
1.0706462 1.0539079 1.048784 1.026549 1.0406027 1.0250322 0.98542833 1.0568259
1.0210034 1.048591 1.010638 1.0642635 1.0321436 1.0606663 1.0261142 1.0485504
1.0534897 1.0289023 1.0580709 1.0382837 1.0339285 1.0387503 1.0499638 1.0217155
1.0363234 1.0588107 1.0647101 1.0556008 1.0536907 1.0507419 1.0792388 1.0533054
1.0429785 1.0406858 1.0769988 1.0514187 1.0384007 1.04215 1.0623658 1.042211
1.0487622 1.0656701 1.0253311 1.0777346 1.0558885 1.05831 1.0752493 1.0496016
1.0811784 1.06101 1.0374889 1.0577192 1.078199 1.0112609 1.0652087 1.0567696
1.054304 0.99368536 1.0461321 1.0511767 1.058735 1.0417572 1.0437782 1.0345458
1.0292817 1.0218747 1.0663034 1.0429248 1.0731443 1.0261306 1.0575434 1.0259496
1.0633482 1.0544676 1.0400499 1.0657952 1.0536202 1.045556 1.0523468 1.0660617
1.0560765 1.0625986 1.0569147 1.0383613 1.0720425 1.0447685 1.0494982 1.0680128
1.0755892 1.0408864 1.0447905 1.0594325 1.052193 1.0335729 1.0393192 0.9940138
1.0671722 1.0588151 1.0492969 1.0322641 1.0500214 1.0696402 1.0427718 1.0447868
1.0790546 1.050824 1.0592262 1.0477154 1.0455825 1.0266209 1.06133 1.0294998

conv_block.9.bias f4 [128]
00000000: 888a 6b3b 94eb 12bd a1a3 34bd 9d77 90bc
00000010: dec4 0fbd 4ac9 93bd 0d66 18bd 848f f8bc
00000020: 20b1 25bd 55d8 ecbc 30e6 60bd fac9 c6bc
00000030: c0df 75bc 607e 83bd 8a53 cfbb 24f4 fcbb
00000040: 46be a43a 59ec 10bd 9aa9 aebc c0d9 63bd
00000050: ad95 25bd 118a 41bd b8fb a4bd 148c 83bc
00000060: 21f4 33bd 08c6 cebc 5c57 7abd d05a 7ebb
00000070: 1699 71bd ac68 85bc 88ef 4abd ffcb 1abd
00000080: 3339 d5bc 8929 2cbd a3fc e7bc 604d 38bd
00000090: c247 14bd 6421 1ebd 6f11 e5bc f432 42bd
000000a0: 5962 5abd cf2e 0abd 6639 3cbc 337b 23bd
000000b0: 66d4 bbbc d628 81bc fe00 e93b b6d6 2fbd
000000c0: f2e5 2fbd 8b90 44bd de3e 4c3b 8092 c1bc
000000d0: abd7 09bd 935d b1bc 72d9 23bc a7d1 15bd
000000e0: 7694 bfbc b933 1ebc 6f69 1ebd 2be5 6d3b
000000f0: 66e3 abbb 3d31 e5bc 3094 bd39 4bad f1bc
00000100: 8ea7 423b fc7e 6fbc df18 60bd 7c47 a9bc
00000110: 25f0 823b fdbc 6ebd 221b cfbb 9567 a2bc
00000120: 8504 ccbc db6e 87bd 6591 09bd 6613 a0bc
00000130: 81d7 75bc d8f5 53bd 969d 07bd 5b5a 26bd
00000140: f9ac 2bbd 58a8 23bd bb7b d4bb 18d3 45bd
00000150: 0042 fe39 b159 83bd e5c0 0fbd 2c43 4cbd
00000160: 06d9 65bb eb9d c5bc 7e37 1ebd 4003 f0b7
00000170: 5340 0ebd 7d25 01bd df9b 34bd faa0 e5bb
00000180: 8671 cebc ab07 e0bc 115a f9bb 49b7 2bbd
00000190: 189d 6cbb 6b8f 91bc 680d 2abd bc51 3d3a
000001a0: b7de 1b3b 25c7 1fbd 2b79 1fbd ad03 74bc
000001b0: f2de 1cbd 2452 4bbd e28b cabc b943 a1bd
000001c0: dbda 34bc 8bb5 ccbc b001 3dbd dc6a ffbc
000001d0: de76 3cbd 3217 1ebc 97ca d2bc ca0f 27bd
000001e0: 6fe5 d33b 63e4 06bd badb 29bd 879a 16bd
000001f0: 23b1 18bd 8cec 7fbd 4824 00bc d398 3dbd
0.0035940725 -0.035869196 -0.04410136 -0.017635161 -0.035099857 -0.07216127 -0.0372067 -0.030341871
-0.040452123 -0.028911749 -0.054907024 -0.024266232 -0.015006959 -0.064205885 -0.0063270973 -0.0077195335
0.0012568913 -0.03538165 -0.021321107 -0.055627584 -0.040425945 -0.04725081 -0.08055824 -0.016058005
-0.04393399 -0.025240913 -0.06111847 -0.0038811453 -0.058983885 -0.016285263 -0.04954484 -0.037792202
-0.026028251 -0.0420318 -0.028318709 -0.044995666 -0.036201246 -0.038606063 -0.027962415 -0.047411874
-0.053316448 -0.033736046 -0.011488294 -0.039912414 -0.022928428 -0.015766542 0.007110714 -0.042929374
-0.042943902 -0.04798941 0.0031165401 -0.023629427 -0.033652943 -0.021651065 -0.0100005735 -0.036576893
-0.023386221 -0.009655886 -0.038674768 0.0036299925 -0.005245614 -0.02797758 0.00036159297 -0.029501578
0.002970192 -0.014617678 -0.05471122 -0.02066397 0.0039959126 -0.058285702 -0.006320373 -0.019824782
-0.024904499 -0.06612941 -0.033585925 -0.0195405 -0.015004993 -0.051748127 -0.03310927 -0.040613513
-0.041913006 -0.039955467 -0.0064844764 -0.048297018 0.0004849583 -0.06413592 -0.035096068 -0.049868748
-0.0035071983 -0.024123153 -0.03862714 -2.8611743e-05 -0.034729313 -0.031529892 -0.044093963 -0.0070077153
-0.025200617 -0.027347406 -0.0076096137 -0.04192284 -0.0036104377 -0.017768582 -0.04151669 0.0007221957
0.0023783871 -0.03900828 -0.038933914 -0.0148934545 -0.038298555 -0.049638882 -0.024724904 -0.07874245
-0.011038507 -0.02498891 -0.046144187 -0.031178884 -0.046011798 -0.009649085 -0.025731368 -0.040786542
0.0064665596 -0.03293265 -0.041469313 -0.036768463 -0.037278306 -0.062481448 -0.00782115 -0.046288323

conv_block.9.running_mean f4 [128]
00000000: 1171 edbf 56cd 7ebf 046a 56be 236a 11c0
00000010: 36a6 42c0 68bb 7ebf d22e 75bf a929 73bf
00000020: ae36 42c0 74f1 ca3f bf03 65bf a511 41c0
00000030: 7af1 40c0 493a f03c 2345 37c0 a151 08c0
00000040: dd24 06c0 f76e 21bf 3f01 0dc0 0040 45bf
00000050: 50eb c73f 46c0 18bf 413c d03f 541f 07c0
00000060: aac2 4dc0 f637 56c0 6f86 31bf 7540 49c0
00000070: 6352 4ebf 5053 3cc0 ca54 9cbf 7ba4 5abf
00000080: 97eb 0bc0 79a2 4ac0 a996 16bf 9931 bb3f
00000090: 5e5e 58c0 6635 d43f c13c 49c0 2e21 c83f
000000a0: 46e9 89bf a83b 80bf c1a3 0cc0 d26d 91bf
000000b0: 8001 51c0 e6a2 3fc0 94d6 fdbf f1e0 94bf
000000c0: 5036 3bbf 7a81 73bf 8e89 07c0 5e36 3ec0
000000d0: 2626 39bf 5e9a 41c0 806b 34c0 5eb3 67bf
000000e0: 3e45 40c0 179d 03c0 4e1f 0ac0 eedc 0fc0
000000f0: 70ec 37c0 dc07 1cbf 3a77 07c0 6edd 80bf
00000100: e043 09c0 904f 0cc0 0306 93bf 7bc6 3cc0
00000110: 7e47 09c0 0d47 ce3f 0b4b 05c0 a69f 42c0
00000120: 5892 41c0 6a90 8cbf b584 4bbf d419 0fc0
00000130: 81c9 13c0 843f 88bf 9ccd 4fbf 38c6 c73f
00000140: 76ca b03f 9e6b 04c0 54a4 44c0 e9d3 6ebf
00000150: 9f85 01c0 0acc 48bf b1a1 74bf d9e9 c73f
00000160: 0f57 00c0 9e77 43c0 9291 42c0 2a14 05c0
00000170: 71a2 22bf 58ec 45c0 2ed2 89bf 2cfe 0bc0
00000180: b032 48c0 9d88 5abf 2086 fbbf 8e11 30bf
00000190: f8a7 0ec0 74f1 08c0 e4de 5fbf 738f efbf
000001a0: 9e26 0cc0 15f0 ad3f 1b5d 5bbf 5258 01c0
000001b0: 0a23 2abf 20b5 2ebf 8b62 09c0 178d 80bf
000001c0: 3b7c 07c0 fd28 59bf 1d93 82bf 6d5d 46c0
000001d0: 8bbc 91bf 3453 0ac0 4492 40c0 c765 30bf
000001e0: 45f7 04c0 3a1b 3cbf ee03 7abf 2060 84bf
000001f0: e9c9 8cbf fbc6 b1bf 45df 35c0 7180 c33f
-1.855013 -0.9953207 -0.20938879 -2.272103 -3.0413947 -0.9950471 -0.9577457 -0.94985443
-3.0345874 1.5854936 -0.8945884 -3.016702 -3.0147386 0.029324668 -2.8635948 -2.1299822
-2.096 -0.63059944 -2.203201 -0.7705078 1.5618687 -0.59668386 1.6268388 -2.111287
-3.2150064 -3.3471656 -0.69345754 -3.1445591 -0.8059446 -2.942585 -1.2213376 -0.8540723
-2.1862543 -3.1661665 -0.5882364 1.4624511 -3.3807597 1.6578796 -3.1443331 1.5635126
-1.0774314 -1.0018206 -2.1974947 -1.136164 -3.2657166 -2.9943175 -1.9831109 -1.1631147
-0.7312975 -0.9511944 -2.1177707 -2.9720683 -0.72323835 -3.0250468 -2.8190613 -0.9050807
-3.0042262 -2.056463 -2.1581607 -2.2478595 -2.873806 -0.6094949 -2.116652 -1.0067575
-2.1447678 -2.192356 -1.148621 -2.9496143 -2.1449885 1.6115433 -2.0827053 -3.0409942
-3.024557 -1.0981572 -0.7949937 -2.2359514 -2.3091738 -1.0644383 -0.8117311 1.5607367
1.3811786 -2.0690684 -3.0725298 -0.932921 -2.0237806 -0.7843634 -0.9555922 1.561824
-2.0053136 -3.0541759 -3.040135 -2.0793557 -0.63529116 -3.0925503 -1.0767267 -2.1873884
-3.1280937 -0.85364705 -1.9650307 -0.68776786 -2.229002 -2.1397371 -0.8744948 -1.8715652
-2.189857 1.3588892 -0.8568894 -2.0210156 -0.66459715 -0.68245125 -2.1466396 -1.0043057
-2.1169574 -0.8482817 -1.0201145 -3.0994523 -1.1385664 -2.1613283 -3.0089273 -0.689053
-2.0775921 -0.73479044 -0.97662246 -1.0341835 -1.0999118 -1.3888849 -2.8417523 1.5273572

conv_block.9.running_var f4 [128]
00000000: 0033 ca3f 0993 0140 e772 663f 1aba 1240
00000010: 542c b23f 5ef4 0e40 f430 1140 3443 0640
00000020: e14d ae3f facf c43f 743e f03f 5584 ae3f
00000030: ddc3 b53f d9dc 523f 17ce a03f db6c 1540
00000040: a709 0c40 ade6 0440 8961 0440 c49d 0c40
00000050: 6d18 d93f eeb0 0240 8f99 d63f 0029 1840
00000060: a29e c03f fd94 c13f a00e 0940 2c30 b63f
00000070: a843 1540 3ce2 b03f 5e90 f13f d4f8 0c40
00000080: 23db 2540 ce12 b93f d49d 0940 b14c e73f
00000090: e272 d23f 8e11 de3f 77ce b03f 3d0b d23f
000000a0: b11b 0b40 8dc3 0740 3a70 1640 89c9 0740
000000b0: 4a0e c73f 67c4 aa3f ef61 1140 41a8 0740
000000c0: edda 1140 4303 1040 e36a 0d40 bf31 b33f
000000d0: 977a 0a40 47b9 b43f a658 a63f 502f 0c40
000000e0: 7136 ae3f 2e3b 1340 8047 3140 fa6b 1540
000000f0: cd2d a03f 6309 0740 77a1 2740 1928 e33f
00000100: ff56 1540 7d13 1340 a6d1 0040 e559 ad3f
00000110: 6b1d 1b40 eaa3 d93f 77c7 1240 bc66 b63f
00000120: 0692 aa3f 8df5 7e3f 7dd4 0b40 616f 1940
00000130: c740 1b40 b1ae 1340 5ae7 ff3f 71af da3f
00000140: 3d6d bd3f 259d 2740 087e b53f 90a2 1340
00000150: 41a4 0f40 2736 0c40 8471 0a40 0cbf c23f
00000160: 4132 0740 7cf6 bb3f f15d b33f 8a73 0740
00000170: 4b49 0740 c145 b33f 6fae 0940 ad7c 1e40
00000180: 9c77 be3f dc2d 0a40 d186 ea3f 210e 1540
00000190: fe04 2640 f7e1 2840 4778 0f40 e57e e83f
000001a0: bccc 1940 a5b7 cd3f 6867 0940 289f 1740
000001b0: d6d7 1140 eb02 1140 1598 0240 7eee 0740
000001c0: ee2b 1340 2e35 0640 1710 0840 c08f bc3f
000001d0: 6d0f 0640 4168 1540 1a55 b23f cfa0 0b40
000001e0: ff7f 2140 106d 0a40 9221 0040 5e77 0a40
000001f0: 86e5 0e40 2cd2 0940 936f a73f 10ec c83f
1.5796814 2.0245993 0.9001908 2.2926087 1.3919778 2.233665 2.2686129 2.0978518
1.3617517 1.537597 1.8769059 1.3634135 1.4200398 0.82368237 1.2562894 2.334769
2.1880891 2.0765793 2.068453 2.1971292 1.6960579 2.042049 1.6765612 2.3775024
1.5048411 1.5123593 2.1415176 1.4233451 2.3322544 1.3819041 1.8872182 2.2026873
2.5915 1.4458864 2.150258 1.8070279 1.644131 1.7349107 1.3813008 1.640968
2.1735651 2.1213105 2.3505998 2.1216757 1.5551236 1.3341187 2.2716024 2.1196444
2.2789872 2.250199 2.2096488 1.3999556 2.1637323 1.4119042 1.2995803 2.1903877
1.3610364 2.300487 2.769989 2.3347154 1.2513977 2.109948 2.61923 1.7746612
2.3334348 2.2980645 2.012796 1.3543059 2.4236705 1.7003148 2.2934244 1.4250102
1.3325813 0.9959343 2.1848443 2.397423 2.4258287 2.3075373 1.9992478 1.708479
1.4798962 2.6189663 1.4179087 2.306797 2.2444003 2.1908052 2.1631784 1.5214553
2.1124423 1.4684596 1.4013044 2.116427 2.1138484 1.4005662 2.1512716 2.4763596
1.4880252 2.159049 1.8322393 2.3289874 2.5940547 2.6387918 2.2417161 1.8163725
2.403121 1.6071669 2.1469364 2.3690891 2.2787986 2.265803 2.0405324 2.1239314
2.2995563 2.0969958 2.125982 1.4731369 2.0946915 2.3344882 1.3932221 2.18169
2.5234373 2.1629066 2.002049 2.1635356 2.232759 2.1534529 1.3080925 1.569704
