video_caption_generator/classifier/ensemble/__pycache__/step2A/step2A_3.pt (torch, 417647 bytes, 22 tensors)

conv_block.0.weight f4 [32, 1, 3, 3]
0.029092016 0.056289673 0.073133536 -0.03519775 -0.21075583 -0.20035617 -0.32334578 -0.2339708
-0.20221332 -0.33032176 0.057836484 0.15225087 -0.058897592 -0.2846935 0.021808766 -0.36915618
-0.033805937 -0.30140907 0.16475822 -0.17915058 0.28229862 -0.030287676 0.09175611 0.30327454
0.17579325 0.11820656 0.21705122 0.11638071 0.05637736 -0.30150816 -0.4003405 0.19301176
0.30782112 -0.07312426 0.052415375 -0.2736607 0.014461548 0.24867962 0.04741272 0.1397146
0.43244725 0.08705013 -0.035420824 -0.054221164 -0.03894702 0.38256875 -0.15487672 0.19772655
0.09497425 0.12147394 -0.003332136 0.14230351 0.085158974 0.06282556 -0.14202829 -0.20215109
0.051789142 -0.4827567 0.039555807 0.2242909 -0.58184814 0.028033976 -0.13323045 0.2950801
-0.09591458 -0.13053183 0.34471348 0.26622534 0.35389248 -0.04012315 -0.10896972 -0.052869212
0.24735738 0.085673556 -0.29939407 -0.07715653 -0.15937763 -0.41632792 0.25826934 -0.018676884
-0.25553057 -0.21812695 0.20639059 0.23660238 -0.3621976 -0.31397 0.1500429 -0.046040148
-0.13033673 0.21416661 -0.37051943 -0.034745086 0.044219773 -0.1517123 -0.20603836 -0.0022754364
-0.5245945 0.28855002 -0.1358086 -0.3158324 0.21307376 -0.04881112 0.23576263 0.11172655
0.23751082 -0.18619809 0.23220961 0.2512371 0.04670398 -0.28148875 -0.31494558 0.24148816
-0.3276134 -0.12059729 0.27416885 -0.1283989 0.22784649 0.033904605 0.23947373 -0.3651874
-0.26178175 0.18158981 -0.11062188 -0.13033278 0.10083546 -0.18356061 0.08654485 -0.088276304
-0.40194222 0.014848718 0.079888426 -0.32138965 0.11922529 0.049920384 0.20031558 -0.38846377
-0.24586596 -0.27014023 -0.58264965 0.21932986 -0.049070526 -0.07757026 -0.068961196 0.28658038
-0.21284392 -0.32279563 -0.2790458 -0.0058926577 -0.24852946 0.1298845 -0.08842633 -0.31519613
0.13279729 0.3340823 0.16090778 0.079540156 -0.07022139 0.33597904 0.35314247 -0.21627142
-0.30809537 0.32126105 -0.20074663 0.23206532 -0.2455379 0.12017833 -0.17826854 -0.1838467
0.09604815 -0.1317511 0.29172975 -0.21954596 0.07270315 -0.046470627 -0.36151466 -0.23736499
-0.00013420735 0.29808918 -0.034212545 0.18752341 -0.34423077 0.31115538 -0.37217665 0.20714119
0.04694075 0.0061570317 -0.15800393 0.18915948 -0.18213281 0.27025944 -0.2626877 0.09960722
0.3795286 0.07648474 0.29842576 -0.023920802 0.24143237 -0.10379105 0.11513694 -0.19766374
0.23324054 0.23629704 -0.24785642 -0.18640071 0.011489832 -0.36209455 0.015267203 0.18072675
0.076990634 0.18401502 0.3247181 -0.10480933 0.3169193 0.35784796 0.113602296 -0.11088487
-0.18416607 -0.30805498 0.10292367 -0.049509574 -0.004381472 0.32569048 -0.19250998 0.085055426
-0.1476343 -0.5311618 0.14014617 -0.05321494 -0.36462614 -0.18007757 -0.0959153 -0.2926015
-0.043022532 0.13072933 -0.080039814 0.1517173 0.15449817 -0.18680017 -0.3376709 0.052794416
-0.12995744 0.21747254 0.29132375 0.09183109 -0.006486939 -0.3313081 0.17197724 -0.15915121
-0.051288743 0.06219064 0.0842721 -0.2830779 -0.03323298 0.06765375 0.1361586 0.36080763
00000000: 6152 ee3c 0090 663d 09c7 953d 842b 10bd
00000010: 60d0 57be 2b2a 4dbe 948d a5be 0b96 6fbe
00000020: 0211 4fbe ef1f a9be f3e5 6c3d a7e7 1b3e
00000030: 9a3e 71bd 59c3 91be 4ca8 b23c 0a02 bdbe
00000040: 1878 0abd 4a52 9abe 61b6 283e 4073 37be
00000050: 7289 903e dc1d f8bc a1ea bb3d cd46 9b3e
00000060: 2503 343e 4816 f23d ad42 5e3e 0259 ee3d
00000070: f2eb 663d 475f 9abe 6ef9 ccbe e0a4 453e
00000080: bb9a 9d3e 2cc2 95bd 81b1 563d 411d 8cbe
00000090: 21f0 6c3c dfa5 7e3e d733 423d 5811 0f3e
000000a0: ba69 dd3e 5747 b23d 6d15 11bd 0317 5ebd
000000b0: e986 1fbd 0de0 c33e 0198 1ebe d478 4a3e
000000c0: dc81 c23d 54c7 f83d f75f 5abb 03b8 113e
000000d0: d467 ae3d b0aa 803d dd6f 11be b200 4fbe
000000e0: da20 543d e32b f7be 4505 223d 84ac 653e
000000f0: 00f4 14bf 82a7 e53c 906d 08be bd14 973e
00000100: dd6e c4bd 23aa 05be 497e b03e b04e 883e
00000110: 6531 b53e 2c58 24bd 842b dfbd 638d 58bd
00000120: 414b 7d3e 9e75 af3d 2e4a 99be 3e04 9ebd
00000130: e433 23be ef28 d5be e13b 843e 4400 99bc
00000140: e7d4 82be ac5c 5fbe 0e58 533e e547 723e
00000150: f771 b9be adc0 a0be d9a4 193e 9894 3cbd
00000160: fe76 05be 7e4e 5b3e b9b4 bdbe dd50 0ebd
00000170: cb1f 353d 785a 1bbe b8fb 52be 7d1f 15bb
00000180: d34b 06bf d4bc 933e 6911 0bbe c9b4 a1be
00000190: 0230 5a3e 2bee 47bd c26b 713e e4d0 e43d
000001a0: 0936 733e b6aa 3ebe 5bc8 6d3e 26a2 803e
000001b0: ac4c 3f3d 4b1f 90be 8c40 a1be ac48 773e
000001c0: f2bc a7be b6fb f6bd dc5f 8c3e 007b 03be
000001d0: 9750 693e 8edf 0a3d 9a38 753e d8f9 babe
000001e0: 4208 86be aef2 393e b98d e2bd f575 05be
000001f0: d282 ce3d 50f7 3bbe 6d3e b13d 35ca b4bd
00000200: 5fcb cdbe 0a48 733c 8b9c a33d 2f8d a4be
00000210: 642c f43d 5179 4c3d 871f 4d3e b9e4 c6be
00000220: 49c4 7bbe d24f 8abe 8728 15bf 0298 603e
00000230: 2dfe 48bd 28dd 9ebd 873b 8dbd aaba 923e
00000240: c2f3 59be 7845 a5be 17df 8ebe 3217 c1bb
00000250: 827e 7ebe 7100 053e dd18 b5bd 6361 a1be
00000260: 03fc 073e d60c ab3e 02c5 243e f3e5 a23d
00000270: 3bd0 8fbd 7205 ac3e 17cf b43e 4176 5dbe
00000280: adbe 9dbe 547c a43e 8690 4dbe 88a2 6d3e
00000290: 4a6e 7bbe 0e20 f63d 078c 36be 4f42 3cbe
000002a0: e4b4 c43d c3e9 06be 9a5d 953e a8d0 60be
000002b0: 64e5 943d fc57 3ebd 7318 b9be cf0f 73be
000002c0: 03ba 0cb9 259f 983e 7422 0cbd 2306 403e
000002d0: 043f b0be c24f 9f3e f08d bebe d21c 543e
000002e0: f244 403d edc0 c93b c8cb 21be 06b3 413e
000002f0: 0681 3abe 725f 8a3e 017f 86be dffe cb3d
00000300: 9351 c23e 08a4 9c3d 43cb 983e 8ff5 c3bc
00000310: 0c3a 773e 6790 d4bd eacc eb3d 5d68 4abe
00000320: 9cd6 6e3e daf7 713e 13ce 7dbe d4df 3ebe
00000330: d93f 3c3c 7564 b9be 4a23 7a3c 6f10 393e
00000340: 44ad 9d3d 6f6e 3c3e 7341 a63e 46a6 d6bd
00000350: 3f43 a23e d937 b73e 52a8 e83d 9b17 e3bd
00000360: 0896 3cbe 62b9 9dbe a5c9 d23d 8dca 4abd
00000370: 7392 8fbb e7c0 a63e 5621 45be 8a31 ae3d
00000380: 722d 17be 38fa 07bf 7a82 0f3e e9f7 59bd
00000390: 47b0 babe 4166 38be 3e6f c4bd ddcf 95be
000003a0: 6538 30bd e9dd 053e eaeb a3bd c85b 1b3e
000003b0: c534 1e3e 8b48 3fbe 33e3 acbe f53e 583d
000003c0: 9013 05be 1fb1 5e3e 6328 953e f011 bc3d
000003d0: 6390 d4bb 37a1 a9be cd1a 303e 89f8 22be
000003e0: 2514 52bd 9dbb 7e3d da96 ac3d 96ef 90be
000003f0: 4e1f 08bd 0d8e 8a3d 296d 0b3e c7bb b83e

conv_block.0.bias f4 [32]
0.03704003 0.31995836 0.13323684 -0.032564327 0.0319794 -0.2858735 -0.2420685 0.25852436
-0.28373066 0.027865106 -0.09123312 0.11916754 0.19498406 0.2128348 0.16041489 0.08868852
-0.028813079 0.13830571 0.0040906146 -0.06495671 -0.2557212 0.13977827 -0.25885206 -0.28292948
-0.060727738 -0.28216478 -0.20701987 0.16019498 -0.2152305 0.2647861 -0.20612615 -0.2517365
00000000: 49b7 173d 95d1 a33e 3d6f 083e 2c62 05bd
00000010: d5fc 023d 035e 92be cee0 77be 4e5d 843e
00000020: 2545 91be 5d45 e43c 6ed8 babd 1c0e f43d
00000030: e7a9 473e 5ef1 593e cd43 243e 54a2 b53d
00000040: 6809 ecbc 03a0 0d3e 900a 863b 0608 85bd
00000050: e4ed 82be 0922 0f3e 4288 84be 22dc 90be
00000060: a6bd 78bd e777 90be 04fd 53be 270a 243e
00000070: 6265 5cbe 0b92 873e bc12 53be 9be3 80be

conv_block.1.weight f4 [32]
0.95856655 0.9824705 0.91202205 1.0862226 0.9195026 0.9998635 1.1351784 0.9713687
1.0854229 0.93122536 1.0495092 0.8045098 0.93802166 0.9750607 0.9647062 0.97658306
0.98407274 0.8839363 0.9747155 0.9766078 0.92528266 0.95196193 0.94427013 0.9859565
0.8935073 1.081102 0.8655815 1.0638543 0.91572464 1.1451646 0.97913873 0.9369639
00000000: 9e64 753f 3083 7b3f 477a 693f 5809 8b3f
00000010: 8664 6b3f 0ef7 7f3f 874d 913f 9eab 783f
00000020: 23ef 8a3f c964 6e3f 5156 863f 5bf4 4d3f
00000030: 3022 703f 949d 793f fcf6 763f 5901 7a3f
00000040: 31ec 7b3f a649 623f f486 793f f802 7a3f
00000050: 53df 6c3f c7b3 733f b0bb 713f a567 7c3f
00000060: e5bc 643f 8d61 8a3f c096 5d3f 612c 883f
00000070: ee6c 6a3f c194 923f d6a8 7a3f dedc 6f3f

conv_block.1.bias f4 [32]
-0.22643813 -0.16691777 -0.15861474 -0.08180523 -0.08188419 -0.06413621 -0.11628868 -0.040966246
-0.019956905 -0.17818534 -0.15513904 -0.22431278 -0.2963896 0.013505765 -0.44016945 -0.018227665
-0.4298574 -0.114814796 -0.34859264 -0.107807614 -0.05753711 -0.04349631 -0.19331849 -0.049423393
-0.22180396 -0.052821323 -0.38788328 -0.0633786 -0.062416676 -0.18525282 -0.09796489 -0.35764435
00000000: 66df 67be 7eec 2abe e76b 22be 8089 a7bd
00000010: e6b2 a7bd d859 83bd c228 eebd 39cc 27bd
00000020: aa7c a3bc 3876 36be c5dc 1ebe 40b2 65be
00000030: 61c0 97be 4947 5d3c e45d e1be 2f52 95bc
00000040: 4516 dcbe 0524 ebbd bc7a b2be 3dca dcbd
00000050: 08ac 6bbd 3029 32bd 48f5 45be 2f70 4abd
00000060: 9420 63be 2c5b 58bd a398 c6be a4cc 81bd
00000070: a1a8 7fbd eab2 3dbe d1a1 c8bd 291d b7be

conv_block.1.running_mean f4 [32]
-7.049051 -7.3418727 7.780256 -1.99302 5.8852086 5.9102464 -8.208511 6.319703
-4.7698126 -2.1714492 -7.4392834 5.157027 -2.3776932 -3.097159 -1.6895823 -7.8498616
-7.8660054 6.954582 -1.3797883 -2.6376336 -1.9623532 6.969015 -2.820495 8.792931
-2.2007911 -9.142002 0.33552325 -2.5634904 2.607397 -6.373786 -9.169248 -3.7230492
00000000: d391 e1c0 9ff0 eac0 dbf7 f840 481b ffbf
00000010: a153 bc40 bd20 bd40 1056 03c1 023b ca40
00000020: 4ea2 98c0 06f9 0ac0 9c0e eec0 5d06 a540
00000030: 202c 18c0 da37 46c0 3c44 d8bf 1132 fbc0
00000040: 51b6 fbc0 f08b de40 e79c b0bf fdce 28c0
00000050: 642e fbbf 2c02 df40 fd82 34c0 d8af 0c41
00000060: c3d9 0cc0 a445 12c1 b4c9 ab3e 3a10 24c0
00000070: 98df 2640 0ef6 cbc0 3db5 12c1 7046 6ec0

conv_block.1.running_var f4 [32]
287.9922 433.7454 425.45758 124.683044 290.77576 259.6219 891.0581 256.8582
666.46606 485.6415 596.2969 352.9456 471.87024 333.70886 203.89587 684.72406
566.16754 420.95984 34.134968 109.5463 259.11176 302.38858 367.2115 539.67175
194.17526 827.042 237.16707 320.53043 369.03802 527.5101 706.61346 307.1081
00000000: 00ff 8f43 69df d843 92ba d443 b85d f942
00000010: 4c63 9143 9acf 8143 b8c3 5e44 d96d 8043
00000020: d49d 2644 1dd2 f243 0013 1544 0979 b043
00000030: 64ef eb43 bcda a643 58e5 4b43 572e 2b44
00000040: b98a 0d44 dc7a d243 358a 0842 b517 db42
00000050: 4e8e 8143 bd31 9743 129b b743 feea 0644
00000060: de2c 4243 b0c2 4e44 c52a 6d43 e543 a043
00000070: de84 b843 a5e0 0344 43a7 3044 d68d 9943

conv_block.4.weight f4 [64, 32, 3, 3]
0.0030477177 -0.0016247317 0.087683976 -0.008530603 0.015844444 0.11265082 0.0067370464 0.012866042
0.018764883 -0.08238228 -0.0848 0.053171672 -0.016016116 -0.10665664 0.049316976 -0.063135944
-0.0698619 -0.0013574467 -0.01885516 -0.0345151 0.018034218 -0.067239724 -0.08004158 0.045993656
-0.02896347 -0.075840205 -0.01638401 0.0011089823 -0.05478722 -0.00038046442 0.060467023 -0.061552554
0.05338341 -0.014665426 -0.002619947 0.016634082 0.045084327 -0.017587397 0.06822175 -0.024945226
-0.010900431 0.011717711 -0.008919166 -0.066163674 -0.0074436422 -0.053155355 -0.031846516 -0.052025676
-0.02885516 -0.059074152 -0.02551993 -0.046209916 -0.033527244 -0.10198753 -0.001738022 -0.14154828
-0.013292487 -0.049841713 -0.087319545 0.07089345 0.020732103 -0.14896293 0.015169147 -0.08024202
-0.017258681 -0.09672933 -0.02342162 -0.077502534 -0.09411757 -0.051936485 -0.055540066 -0.11658965
-0.011877295 0.0992003 -0.13420627 -0.012800796 0.06615984 -0.18134952 -0.076088585 0.046833973
-0.14845136 0.048495177 -0.0175302 -0.001958068 0.03413125 -0.043140087 -0.017983677 0.095129296
0.014503937 0.0004496508 -0.046989452 -0.13154246 -0.040417984 -0.13399053 -0.13977772 0.054792475
-0.023125025 -0.099223845 -0.0061682323 0.03478364 -0.05474544 -0.03759324 0.04721898 0.07402038
-0.112078026 0.03500015 0.042045873 -0.07707388 -0.011402983 0.039903123 0.03909352 0.059240323
0.032386664 0.039728153 0.0034519057 -0.0035756433 0.03872474 -0.011933512 -0.028152134 0.024285352
-0.0036486473 -0.0068679103 -0.035069503 0.025093712 0.002785035 0.05471722 0.015258042 0.0768482
0.003929957 0.018449225 0.105091885 -0.06165896 0.03290625 0.04566961 0.054985967 -0.041170802
-0.06710643 -0.041065246 -0.012778239 -0.08294563 0.037141163 -0.03545757 -0.07864169 -0.0079584485
-0.17674981 0.018839398 0.121313944 -0.11464046 0.056168873 0.085367054 -0.2124332 -0.014673682
0.06425854 0.00594993 -0.057657525 -0.015347971 -0.11679405 0.08995571 -0.021519836 0.025818579
0.058152344 -0.0035362025 -0.062363636 -0.0068158223 0.017570116 0.05670914 0.095193245 -0.061622452
0.0026005905 0.04159496 -0.043977395 -0.045530465 0.013834398 0.106919825 -0.054420885 -0.033117972
0.13667694 -0.05959351 -0.03241166 0.042665545 -0.001217983 0.032655906 0.06509331 0.049597345
-0.03285848 0.08693997 0.0054437006 -0.00024176651 0.023701169 -0.026478399 -0.08781758 -0.036041416
-0.018651517 -0.07908924 -0.121035285 -0.0787426 -0.025109788 -0.04433871 -0.115304224 0.04041157
0.065345906 -0.121544704 -0.051324748 0.08223112 -0.17240754 0.0076583703 0.023780022 -0.027647628
-0.016699696 -0.1403747 -0.08194216 -0.076915205 -0.11107422 -0.04818974 -0.027329499 -0.12622038
0.06932596 -0.044823397 -0.020240106 0.0031422984 0.030830065 0.038942177 -0.011470356 0.021242538
0.038903814 -0.10036527 -0.08589529 0.052793425 -0.07008488 -0.08316567 0.061481427 -0.005803189
-0.07966966 0.030752575 -0.15258995 -0.05723586 -0.012019388 -0.10512861 -0.013187503 -0.058003813
-0.15184644 0.024259703 -0.004792571 -0.025169494 0.112433866 -0.12262547 -0.023622638 0.020050852
-0.113626696 -0.04844 0.07990075 -0.10319236 -0.07039782 0.06608609 0.10261571 -0.026957111
00000000: 38bc 473b f3f4 d4ba a893 b33d f1c3 0bbc
00000010: 35cc 813c 79b5 e63d 71c2 dc3b 17cc 523c
00000020: d0b8 993c 0ab8 a8bd 9fab adbd 8aca 593d
00000030: 3b34 83bc cc6e dabd 9900 4a3d 6b4d 81bd
00000040: c113 8fbd 5aec b1ba 2376 9abc b55f 0dbd
00000050: 7fbc 933c fbb4 89bd d7ec a3bd d863 3c3d
00000060: cd44 edbc 1c52 9bbd c237 86bc 455b 913a
00000070: 9068 60bd 1279 c7b9 45ac 773d 881e 7cbd
00000080: 90a8 5a3d 4147 70bc 6bb3 2bbb 3344 883c
00000090: 58aa 383d 7213 90bc d8b7 8b3d ee59 ccbc
000000a0: b997 32bc a4fb 3f3c b221 12bc d280 87bd
000000b0: cce9 f3bb 6eb9 59bd 7e71 02bd e018 55bd
000000c0: a861 ecbc bdf7 71bd 2c0f d1bc 9c46 3dbd
000000d0: dd53 09bd d7de d0bd 57ce e3ba 08f2 10be
000000e0: bbc8 59bc d326 4cbd 97d4 b2bd 9630 913d
000000f0: 5fd6 a93c bd89 18be 0488 783c ee55 a4bd
00000100: 1462 8dbc 071a c6bd b2de bfbc a6b9 9ebd
00000110: b6c0 c0bd 5abb 54bd fb7d 63bd 8ec6 eebd
00000120: fc98 42bc 8729 cb3d 5e6d 09be 6eba 51bc
00000130: cf7e 873d b0b3 39be 55d4 9bbd fbd4 3f3d
00000140: a203 18be e1a2 463d 7e9b 8fbc ee52 00bb
00000150: 36cd 0b3d a9b3 30bd 8152 93bc 26d3 c23d
00000160: eca1 6d3c 1cbf eb39 0378 40bd 11b3 06be
00000170: 548d 25bd d034 09be e421 0fbe 136e 603d
00000180: b170 bdbc df35 cbbd e21e cabb 4a79 0e3d
00000190: c13c 60bd 5ffb 19bd b068 413d ff97 973d
000001a0: 2a89 e5bd 515c 0f3d 4b38 2c3d e9d8 9dbd
000001b0: 94d3 3abc 7571 233d 8720 203d fba5 723d
000001c0: e1a7 043d fdb9 223d 5e39 623b 5755 6abb
000001d0: d59d 1e3d c784 43bc 4e9f e6bc 13f2 c63c
000001e0: 251e 6fbb 350c e1bb 0aa5 0fbd 5491 cd3c
000001f0: 2285 363b 2a1f 603d defc 793c 9762 9d3d
00000200: dec6 803b d422 973c 6a3a d73d 1b8e 7cbd
00000210: b4c8 063d 0f10 3b3d f738 613d b7a2 28bd
00000220: 196f 89bd 0834 28bd d25b 51bc 66df a9bd
00000230: 5521 183d f53b 11bd e50e a1bd 2764 02bc
00000240: e7fd 34be 1555 9a3c 7273 f83d 9ec8 eabd
00000250: 5511 663d ecd4 ae3d 1788 59be e269 70bc
00000260: fb99 833d a1f7 c23b 4c2a 6cbd 0e76 7bbc
00000270: b831 efbd b33a b83d 5e4a b0bc 7c81 d33c
00000280: 2731 6e3d a2bf 67bb 0371 7fbd 4357 dfbb
00000290: 34ef 8f3c d847 683d adf4 c23d d367 7cbd
000002a0: ab6e 2a3b 7a5f 2a3d a421 34bd 277e 3abd
000002b0: aca9 623c c8f8 da3d 6fe8 5ebd b6a6 07bd
000002c0: 0af5 0b3e 5318 74bd 17c2 04bd 11c2 2e3d
000002d0: baa4 9fba 33c2 053d a44f 853d 9626 4b3d
000002e0: 9d96 06bd 950d b23d 1261 b23b b482 7db9
000002f0: f428 c23c 3ae9 d8bc b4d9 b3bd 2aa0 13bd
00000300: 11cb 98bc 8af9 a1bd 59e1 f7bd cd43 a1bd
00000310: 0bb3 cdbc 829c 35bd 9f24 ecbd 9a86 253d
00000320: 13d4 853d 6eec f8bd e639 52bd ca68 a83d
00000330: 9a8b 30be 11f3 fa3b 52ce c23c 477d e2bc
00000340: cdcd 88bc 63be 0fbe 4bd1 a7bd b885 9dbd
00000350: e17a e3bd 9b62 45bd 1de2 dfbc ea3f 01be
00000360: c5fa 8d3d bd98 37bd 94ce a5bc 05ef 4d3b
00000370: 558f fc3c d581 1f3d 29ee 3bbc d504 ae3c
00000380: 9b59 1f3d 4f8c cdbd dfe9 afbd eb3d 583d
00000390: a988 8fbd c352 aabd f3d3 7b3d ad28 bebb
000003a0: d929 a3bd d3ec fb3c 8a40 1cbe 2670 6abd
000003b0: f8ec 44bc ab4d d7bd 6610 58bc 6895 6dbd
000003c0: a27d 1bbe 49bc c63c 000b 9dbb 4130 cebc
000003d0: ba43 e63d 1023 fbbd 4384 c1bc af41 a43c
000003e0: 1db5 e8bd 0569 46bd 01a3 a33d 8456 d3bd
000003f0: bb2c 90bd 2558 873d 2f28 d23d 29d5 dcbc

conv_block.4.bias f4 [64]
-0.05114366 -0.033373863 0.00495291 0.0076401066 -0.05357443 0.06468912 0.00017132217 -0.073390774
0.05492498 0.11796829 0.06404064 -0.05318419 0.056639414 0.116981216 -0.030155852 0.004674711
-0.024316657 -0.046368558 -0.018891452 0.016210282 -0.03203285 0.026152521 0.06282173 0.044283208
0.011681787 -0.07137094 -0.0038443059 -0.06580938 -0.067138225 0.08137971 -0.016263638 0.012874398
-0.0542498 0.0060772807 -0.052871343 0.0027483169 -0.0076177055 0.07303211 0.14059494 -0.0054776235
0.0877569 0.05079704 -0.08016886 0.015756024 0.000425723 -0.01901178 -0.031349633 -0.03650031
-0.010666978 0.12826402 0.11287798 -0.023606814 0.030296957 -0.005054125 0.03401179 -0.010158531
0.0058842273 -0.061055124 -0.06672571 -0.027880179 0.015251941 0.14189243 -0.06381247 0.016237164
00000000: 047c 51bd 08b3 08bd 054c a23b dc59 fa3b
00000010: dd70 5bbd bb7b 843d f2a4 3339 e74d 96bd
00000020: 04f9 603d 5c99 f13d bd27 833d aad7 59bd
00000030: bbfe 673d d993 ef3d 6809 f7bc 512e 993b
00000040: ba33 c7bc f5ec 3dbd 3fc2 9abc 6dcb 843c
00000050: e134 03bd d03d d63c aea8 803d 4f62 353d
00000060: f764 3f3c ed2a 92bd c0f0 7bbb 11c7 86bd
00000070: c47f 89bd 68aa a63d 523b 85bc 24ef 523c
00000080: 0a35 5ebd ed23 c73b 9f8f 58bd 1b1d 343b
00000090: f29d f9bb dc91 953d 1ff8 0f3e a37d b3bb
000000a0: e4b9 b33d 8f10 503d 922f a4bd c712 813c
000000b0: 9333 df39 98be 9bbc 7968 00bd 5981 15bd
000000c0: 8cc4 2ebc a557 033e 922c e73d 1463 c1bc
000000d0: 5331 f83c 139d a5bb f24f 0b3d f86f 26bc
000000e0: 7ad0 c03b f014 7abd 7da7 88bd f964 e4bc
000000f0: 47e3 793c 404c 113e 1db0 82bd cd03 853c

conv_block.5.weight f4 [64]
0.9751673 0.98448235 1.026973 0.97213405 0.93253475 0.9513598 0.91038126 0.98388445
0.94944876 1.081283 1.0261974 0.97811264 0.94100267 1.0237907 0.97585386 1.0576444
1.0086514 0.97096276 1.0285194 0.8969221 1.0407056 0.9794398 0.9257783 0.9410645
0.93416244 0.9597159 0.9564009 1.0473742 0.9819824 0.93980473 0.94660574 0.9360406
0.9583661 0.9744935 1.0063324 1.0219616 0.8607664 0.95161444 0.9925258 0.96449506
1.1847764 0.96683097 0.9682042 0.9710068 0.96841294 1.0596632 0.92960674 1.046926
0.9546031 0.9785764 0.9430662 0.95970076 0.8837246 0.961131 0.986431 0.982674
0.94501203 0.98098767 0.93203545 0.93265885 0.94026875 0.98288256 0.9244354 0.96669394
00000000: 90a4 793f 0907 7c3f da73 833f c7dd 783f
00000010: 99ba 6e3f 518c 733f bf0e 693f dadf 7b3f
00000020: 130f 733f 7b67 8a3f 705a 833f 9765 7a3f
00000030: 8de5 703f 930b 833f 8fd1 793f e460 873f
00000040: 7d1b 813f 0491 783f 86a6 833f b09c 653f
00000050: d735 853f 91bc 7a3f cfff 6c3f 9ae9 703f
00000060: 4525 6f3f f1af 753f b0d6 743f 5c10 863f
00000070: 3363 7b3f 0b97 703f c154 723f 5ba0 6f3f
00000080: 7b57 753f 6878 793f 80cf 803f a3cf 823f
00000090: 305b 5c3f 019d 733f 2c16 7e3f 26e9 763f
000000a0: c1a6 973f 3c82 773f 3bdc 773f e793 783f
000000b0: e9e9 773f 0ba3 873f b5fa 6d3f ac01 863f
000000c0: de60 743f fc83 7a3f c96c 713f f3ae 753f
000000d0: c63b 623f ae0c 763f be86 7c3f 8690 7b3f
000000e0: 4fec 713f 0222 7b3f e099 6e3f bbc2 6e3f
000000f0: 74b5 703f 319e 7b3f cca7 6c3f 4179 773f

conv_block.5.bias f4 [64]
-0.071307465 -0.042121578 0.03173436 -0.17828389 -0.44993597 -0.1964922 -0.29899064 -0.2491806
-0.33784118 -0.09167142 -0.0029952587 -0.2628805 -0.20498522 -0.08689007 -0.20202227 -0.06210128
-0.01312185 0.034753483 -0.10897948 -0.43187785 -0.12374397 -0.23244199 -0.035082266 -0.12886931
-0.3836863 -0.12722833 -0.30043298 -0.2874978 -0.077443376 -0.038769808 -0.04465899 -0.32720652
-0.21031056 -0.10481876 0.11838109 -0.01968234 -0.062582746 0.123159185 -0.023388796 0.027491473
-0.1892673 -0.15828009 -0.181942 -0.2017809 0.024553446 -0.11710079 -0.13835521 -0.10934027
-0.20627196 0.02280579 0.03915849 -0.20679717 -0.20109518 -0.12886648 0.04711242 -0.111916125
-0.11075032 0.05882468 -0.3666433 -0.19826289 -0.20380116 -0.20722064 -0.14602657 -0.09751477
00000000: a609 92bd ad87 2cbd e3fb 013d 0d90 36be
00000010: 025e e6be 4035 49be 4d15 99be 3329 7fbe
00000020: 85f9 acbe 3abe bbbd 1a4c 44bb 4698 86be
00000030: a5e7 51be 6cf3 b1bd edde 4ebe e95d 7ebd
00000040: 07fd 56bc ab59 0e3d a230 dfbd 181f ddbe
00000050: 7b6d fdbd 4605 6ebe 6cb2 0fbd 51f6 03be
00000060: 8872 c4be 2548 02be 5ad2 99be e932 93be
00000070: a29a 9ebd 17cd 1ebd 58ec 36bd 9d87 a7be
00000080: a75b 57be 38ab d6bd c971 f23d dc3c a1bc
00000090: 622b 80bd e23a fc3d dc99 bfbc cc35 e13c
000000a0: 49cf 41be 2d14 22be 014f 3abe a79f 4ebe
000000b0: 4f24 c93c 8ad2 efbd fdac 0dbe cbed dfbd
000000c0: f538 53be 35d3 ba3c a764 203d a3c2 53be
000000d0: e5eb 4dbe 93f5 03be f4f8 403d 4834 e5bd
000000e0: 10d1 e2bd 26f2 703d acb8 bbbe 6d05 4bbe
000000f0: 40b1 50be a631 54be fd87 15be d3b5 c7bd

conv_block.5.running_mean f4 [64]
-1.710902 -2.2818432 -2.560584 -1.4916202 -2.9086084 -1.5515511 -1.2004699 -2.1814082
-1.7293208 -1.9664788 -1.9550208 -1.6180512 -1.4327092 -1.9949534 -2.4367347 -2.4071124
-2.1753976 -1.4377991 -2.2675738 -2.2397664 -2.4414556 1.8462849 -1.411398 -1.0460821
-1.8959608 -0.81713057 -1.5571089 -2.5244987 -2.3844285 -1.344105 -0.93508416 -1.7825274
-1.9212708 -2.1524425 -3.00596 -1.6234361 -1.5818226 -2.998494 -1.7187276 -2.1669035
-2.4775639 -1.9482367 -1.9390864 -1.5235242 -2.9393713 -2.3710964 -1.6320639 -2.5056698
-1.7841699 -2.3528178 -2.5649173 -2.120958 -1.3763897 -1.9203781 -2.5690074 -1.5267886
-0.2274518 -2.9274898 -2.7652943 -1.1085615 -1.6146512 -1.4957838 -1.6715832 -1.0693184
00000000: d6fe dabf b809 12c0 9ce0 23c0 69ed bebf
00000010: a426 3ac0 3a99 c6bf ffa8 99bf 319c 0bc0
00000020: 625a ddbf 94b5 fbbf 1f3e fabf 4d1c cfbf
00000030: 0463 b7bf a25a ffbf 76f3 1bc0 210e 1ac0
00000040: b739 0bc0 cd09 b8bf ee1f 11c0 5558 0fc0
00000050: cf40 1cc0 1053 ec3f b1a8 b4bf 05e6 85bf
00000060: d8ae f2bf 782f 51bf 584f c7bf 6391 21c0
00000070: 7a9a 18c0 a20b acbf ad61 6fbf dc29 e4bf
00000080: 34ec f5bf 9ec1 09c0 a661 40c0 c1cc cfbf
00000090: 2a79 cabf 53e7 3fc0 44ff dbbf 8cae 0ac0
000000a0: 6890 1ec0 d25f f9bf fc33 f8bf d702 c3bf
000000b0: a91e 3cc0 0bc0 17c0 78e7 d0bf e55c 20c0
000000c0: ae5f e4bf 9194 16c0 9b27 24c0 c7bd 07c0
000000d0: 8a2d b0bf f3ce f5bf 9e6a 24c0 cf6d c3bf
000000e0: 20e9 68be fe5b 3bc0 95fa 30c0 58e5 8dbf
000000f0: e4ac cebf d875 bfbf 70f6 d5bf 6ddf 88bf

conv_block.5.running_var f4 [64]
5.189197 8.5227995 4.7306333 3.7798674 6.6858153 5.2744575 2.3044355 6.7020245
3.1318197 4.068455 4.201775 3.1279986 3.531416 8.161406 7.4821563 4.680054
8.316865 3.9625096 4.6526556 4.048288 4.655493 2.8596945 3.2660842 2.6542432
3.5997484 2.9474645 3.1071239 5.342146 10.111919 3.2161589 3.9771788 3.1942556
4.5566554 9.6009655 7.9620333 3.289391 3.6172934 8.518015 2.871856 5.554118
5.450864 4.510081 4.9967384 5.772666 8.435924 5.4561768 4.0394993 5.1619925
4.6609945 6.657821 7.828864 4.4292912 5.06089 8.3706255 6.5668263 3.7564263
2.9489582 7.6722813 6.4660687 3.178054 3.2334542 3.494813 3.2263453 3.1191826
00000000: e70d a640 635d 0841 5961 9740 59e9 7140
00000010: 33f2 d540 5bc8 a840 df7b 1340 fc76 d640
00000020: bc6f 4840 c930 8240 f174 8640 2131 4840
00000030: b802 6240 1e95 0241 d36d ef40 01c3 9540
00000040: e111 0541 c299 7d40 8ee2 9440 938b 8140
00000050: ccf9 9440 3c05 3740 8607 5140 1fdf 2940
00000060: 4762 6640 42a3 3c40 1edb 4640 dcf2 aa40
00000070: 6cca 2141 8cd5 4d40 198a 7e40 af6e 4c40
00000080: 1fd0 9140 8e9d 1941 fac8 fe40 6285 5240
00000090: bc81 6740 ca49 0841 7dcc 3740 56bb b140
000000a0: 7a6d ae40 9552 9040 48e5 9f40 aeb9 b840
000000b0: 8bf9 0641 0099 ae40 9443 8140 0b2f a540
000000c0: de26 9540 df0c d540 0e86 fa40 c1bc 8d40
000000d0: d0f2 a140 15ee 0541 7123 d240 4a69 7040
000000e0: bbbb 3c40 5483 f540 09ea ce40 3d65 4b40
000000f0: eaf0 4e40 04ab 5f40 717c 4e40 b0a0 4740

conv_block.8.weight f4 [128, 64, 3, 3]
-0.01937849 0.014361732 0.014861968 -0.00203677 0.04296675 0.030968731 0.06956017 0.10590437
0.061863363 0.050337188 0.051529564 0.040915035 0.03205422 0.0054595205 0.031386305 0.023485547
0.03895402 0.047800776 -0.009137219 -0.0549633 -0.05804896 -0.027497888 -0.08612144 -0.053413477
-0.017149622 -0.07388222 -0.066953234 0.02983118 0.02942414 0.02199513 -0.0060590645 0.0015628433
0.011053468 0.009235 0.02429675 -0.034341834 0.060885362 0.044224016 0.039290313 0.02567466
-0.0046713785 0.011325558 0.028480116 0.027502703 0.063492775 -0.0039215223 0.03573932 -0.009539186
0.01780876 0.007541835 -0.0059675085 -0.029842688 0.029662227 -0.007994299 -0.019382836 -0.041557875
-0.00925157 -0.029889602 -0.033412848 -0.0314291 -0.028829036 -0.040173415 -0.008743234 0.054171048
0.05099893 0.058669914 0.03677152 0.002402728 0.03618853 0.04869765 0.0009009041 0.046445336
0.010772684 0.04024738 0.06557782 -0.011370037 0.046895836 0.029971683 -0.02394382 0.06401726
0.05367673 -0.04572165 -0.1371819 -0.13909881 -0.060453992 -0.11327771 -0.13395204 -0.0381104
-0.15822978 -0.1277615 -0.030462949 -0.10413966 -0.08575775 -0.050134927 -0.07735761 -0.100545034
-0.026960438 -0.10873042 -0.112015314 0.05567669 0.046968102 -0.00058219477 -0.00441387 0.05133737
-0.017720621 0.025525106 0.019079534 0.035626188 -0.036471177 -0.07407643 -0.062297966 -0.043474432
-0.023542617 -0.025328087 -0.017398648 -0.015398918 -0.0049629463 0.0048712743 0.07916506 0.0698402
0.029095558 0.06989426 0.044929244 0.043584716 0.07311293 0.046050973 0.035069734 0.037990432
0.033252805 0.01936586 0.0525238 0.01723594 0.01027588 0.0492633 0.058015946 -0.07734337
-0.083678536 -0.12058418 -0.054529212 -0.05752671 -0.08807215 -0.07643339 -0.09518167 -0.11192353
0.011782418 0.05839137 0.039287344 0.019646076 0.04122614 0.077031314 0.03777095 0.03461181
0.036837466 0.013699211 0.040031675 0.038979426 0.00082735036 0.049256034 0.04357521 -0.0049267807
0.025890825 0.0085234335 -0.0066772006 -0.053908974 -0.049286578 -0.010397364 -0.043951374 -0.040485293
-0.018024225 -0.050014228 -0.05424635 0.048698403 0.06969557 0.071831256 0.013506874 0.08035189
0.0504519 0.035882417 0.08070333 0.047512885 -0.056001276 -0.07247705 -0.06510465 -0.03869729
-0.06342916 -0.068331234 -0.061066225 -0.084387735 -0.10339842 -0.0408864 -0.008794578 -0.06818482
-0.017455047 -0.036263622 -0.10633185 -0.024935119 -0.046733856 -0.084121816 -0.07058508 0.00880659
0.008710271 -0.06298428 0.022155244 0.042732313 -0.049069792 0.014532002 0.07086289 0.07217929
-0.0046407804 -0.008669404 0.03000948 -0.009813214 -0.019236151 0.04836897 -0.05369223 -0.03151131
0.045930568 0.122757226 0.10088204 0.000963944 0.09776589 0.06595869 0.06600734 0.11584897
0.059457622 0.006554215 -0.006356834 -0.025295654 0.005878105 0.020019239 -0.018564513 0.0029092254
0.042962674 -0.02169693 0.018069448 0.026758898 0.078534946 0.057286505 0.038276438 0.042430613
0.065958284 0.03892588 0.04408531 -0.107362285 -0.15074596 -0.14866038 -0.10294747 -0.13009085
-0.12876832 -0.12043553 -0.14749976 -0.15593828 -0.02188333 0.032536447 0.05669212 -0.023723565
00000000: a4bf 9ebc 784d 6b3c 9d7f 733c 557b 05bb
00000010: e7fd 2f3d 23b2 fd3c 9075 8e3d 64e4 d83d
00000020: 7064 7d3d 5e2e 4e3d aa10 533d 8696 273d
00000030: 494b 033d c7e5 b23b ed8e 003d c364 c03c
00000040: 408e 1f3d bfca 433d 46b4 15bc 3221 61bd
00000050: bfc4 6dbd 4043 e1bc 7060 b0bd 17c8 5abd
00000060: 5d7d 8cbc 904f 97bd c71e 89bd 8560 f43c
00000070: e50a f13c 222f b43c 1e8b c6bb 52d8 cc3a
00000080: 9b19 353c 664e 173c fa09 c73c 06aa 0cbd
00000090: ee62 793d 3e24 353d e1ee 203d aa53 d23c
000000a0: 5d12 99bb d58e 393c 224f e93c 594d e13c
000000b0: 8008 823d 1d80 80bb 6563 123d 3f4a 1cbc
000000c0: ade3 913c 7f21 f73b 178b c3bb a778 f4bc
000000d0: 33fe f23c 85fa 02bc c1c8 9ebc 9738 2abd
000000e0: e693 17bc 0adb f4bc e9db 08bd cdbb 00bd
000000f0: df2a ecbc e18c 24bd c83f 0fbc 76e2 5d3d
00000100: 41e4 503d dd4f 703d bc9d 163d 1677 1d3b
00000110: 6d3a 143d 3077 473d a72a 6c3a 773d 3e3d
00000120: e97f 303c 70da 243d aa4d 863d 6449 3abc
00000130: d915 403d 2d87 f53c d425 c4bc 7b1b 833d
00000140: 21dc 5b3d a046 3bbd 6979 0cbe eb6f 0ebe
00000150: 9b9e 77bd 25fe e7bd b92a 09be a719 1cbd
00000160: fd06 22be e9d3 02be 6f8d f9bc 2d47 d5bd
00000170: c2a1 afbd 485a 4dbd ab6d 9ebd 8eea cdbd
00000180: 23dc dcbc 0eae debd 4968 e5bd 3e0d 643d
00000190: a061 403d 6e9e 18ba 3aa2 90bb 2247 523d
000001a0: d62a 91bc 071a d13c af4c 9c3c c4ec 113d
000001b0: cd62 15bd 62b5 97bd 272c 7fbd 3f12 32bd
000001c0: 72dc c0bc d97c cfbc 9c87 8ebc be4b 7cbc
000001d0: 36a0 a2bb 369f 9f3b 4a21 a23d 6108 8f3d
000001e0: cf59 ee3c b924 8f3d ba07 383d e385 323d
000001f0: 3bbc 953d f29f 3c3d 48a5 0f3d db9b 1b3d
00000200: 1834 083d 27a5 9e3c 3223 573d 6332 8d3c
00000210: 2a5c 283c 50c8 493d 21a2 6d3d 3366 9ebd
00000220: a75f abbd d7f4 f6bd 065a 5fbd 21a1 6bbd
00000230: 2c5f b4bd 1c89 9cbd 9bee c2bd 2a38 e5bd
00000240: 0b0b 413c ca2b 6f3d c4eb 203d cff0 a03c
00000250: bedc 283d 98c2 9d3d b6b5 1a3d 1dc5 0d3d
00000260: e2e2 163d a872 603c 41f8 233d e4a8 1f3d
00000270: 8be2 583a b2c0 493d eb7b 323d d570 a1bb
00000280: ff18 d43c dfa5 0b3c 6bcc dabb a8cf 5cbd
00000290: b9e0 49bd b559 2abc 5b06 34bd e8d3 25bd
000002a0: 8aa7 93bc b8db 4cbd 6c31 5ebd fa77 473d
000002b0: 8dbc 8e3d 441c 933d f04b 5d3c 888f a43d
000002c0: a7a6 4e3d 71f9 123d ca47 a53d df9c 423d
000002d0: 9861 65bd d96e 94bd 9655 85bd 0d81 1ebd
000002e0: 26e7 81bd 3ff1 8bbd 9420 7abd 7ad3 acbd
000002f0: 8dc2 d3bd 7f78 27bd 2217 10bc 7ca4 8bbd
00000300: e3fd 8ebc 2a89 14bd 83c4 d9bd bc44 ccbc
00000310: 006c 3fbd 0f48 acbd e98e 90bd 8449 103c
00000320: 86b5 0e3c e7fd 80bd ea7e b53c 1408 2f3d
00000330: 68fd 48bd a217 6e3c 9020 913d bcd2 933d
00000340: b011 98bb 1e0a 0ebc 71d6 f53c 9ac7 20bc
00000350: 2295 9dbc 8b1e 463d 62ec 5bbd 0112 01bd
00000360: b121 3c3d 2468 fb3d 3e9b ce3d 30b1 7c3a
00000370: 7c39 c83d 5a15 873d db2e 873d 3a42 ed3d
00000380: d689 733d bec4 d63b fd4c d0bb d538 cfbc
00000390: 1e9d c03b 63ff a33c 9b14 98bc b4a8 3e3b
000003a0: a1f9 2f3d c3bd b1bc 6106 943c 7a35 db3c
000003b0: eed6 a03d 41a5 6a3d c1c7 1c3d b9cb 2d3d
000003c0: 2315 873d be70 1f3d cc92 343d c2e0 dbbd
000003d0: 265d 1abe 6d3a 18be 20d6 d2bd 8936 05be
000003e0: d8db 03be e7a6 f6bd 2d0a 17be 49ae 1fbe
000003f0: ab44 b3bc f044 053d ff35 683d ec57 c2bc

conv_block.8.bias f4 [128]
-0.025320642 0.035072938 0.044851173 -0.028657246 0.033090383 -0.06892668 0.022757534 0.07754246
-0.03340143 0.053968556 -0.051008012 0.017862394 -0.025016146 0.06366332 0.08172088 0.02360862
-0.035791427 0.05806486 -0.019745763 -0.054681566 0.016229773 -0.017613905 0.025423925 0.04984988
0.0013788133 -0.04872124 -0.0041368594 0.03265893 -0.00011518684 0.11340286 0.095080346 0.020876639
0.03902429 0.05312598 0.04868237 -0.0097998865 0.024638055 -0.10302583 -0.069984466 0.0038331703
-0.04167745 0.034699984 0.044533476 -0.0674634 0.017405033 -0.003881344 0.0372002 -0.06685585
-0.06287354 0.029347025 0.07001512 0.05722565 -0.04600793 0.056041684 -0.017013622 -0.037079588
-0.011878081 -0.0023592438 -0.0022117593 -0.057669137 -0.0065491884 -0.0037907981 0.008537265 0.002349779
-0.063753754 0.04954352 0.04526336 0.02966115 0.06561706 -0.02614627 -0.004387429 -0.03244415
-0.055387277 -0.007189505 -0.012538823 0.03319996 -0.003148121 0.00081073644 -0.03174834 0.037606277
-0.040955514 0.01098898 0.021790974 0.0005918871 -0.007626511 0.05506971 0.010923997 -0.04024247
-0.00066069735 -0.05892515 0.019714657 0.05186328 -0.046459533 0.03780043 0.02020296 -0.045290142
0.003641014 0.036854077 0.021734143 -0.06831118 -0.037599087 -0.023002243 0.08949304 0.052459873
0.053779155 -0.030090366 0.0054410915 0.01030578 0.049822595 0.0002597127 -0.06334678 0.0026896424
-5.4639037e-05 0.005692184 0.07808482 -0.045480005 -0.021617096 -0.03337411 0.024795715 0.030727766
0.057003114 0.00295562 0.011815072 -0.035645228 0.03791806 0.002778185 0.018827325 0.0064693843
00000000: 3c6d cfbc a4a8 0f3d ddb5 373d 9ac2 eabc
00000010: c889 073d 6e29 8dbd 026e ba3c 95ce 9e3d
00000020: f0cf 08bd 220e 5d3d c7ed 50bd 2854 923c
00000030: a9ee ccbc ea61 823d 475d a73d dd66 c13c
00000040: 089a 12bd 6bd5 6d3d dec1 a1bc c7f9 5fbd
00000050: 4df4 843c 094b 90bc d645 d03c 632f 4c3d
00000060: 4cb9 b43a ec8f 47bd 7e8e 87bb 5fc5 053d
00000070: 7790 f1b8 c23f e83d 7cb9 c23d 7c05 ab3c
00000080: efd7 1f3d a19a 593d 2a67 473d b48f 20bc
00000090: bfd5 c93c 35ff d2bd 0454 8fbd ed35 7b3b
000000a0: f9b5 2abd 9221 0e3d bc68 363d 402a 8abd
000000b0: 0095 8e3c 265e 7ebb 3d5f 183d b8eb 88bd
000000c0: d8c3 80bd 2c69 f03c 1664 8f3d 7165 6a3d
000000d0: d072 3cbd f78b 653d 2760 8bbc c4e0 17bd
000000e0: 489c 42bc 8b9d 1abb 2af3 10bb 7936 6cbd
000000f0: 939a d6bb 0a6f 78bb e2df 0b3c c0fe 193b
00000100: 5491 82bd 25ee 4a3d 1366 393d f1fb f23c
00000110: 3d62 863d b430 d6bc 6cc4 8fbb 28e4 04bd
00000120: c5dd 62bd f095 ebbb a36f 4dbc aefc 073d
00000130: b550 4ebb 9a87 543a 8c0a 02bd 0a09 1a3d
00000140: f8c0 27bd 1f0b 343c fc82 b23c df28 1b3a
00000150: d0e7 f9bb c790 613d 90fa 323c 4ad5 24bd
00000160: a632 2dba 805b 71bd a280 a13c 976e 543d
00000170: 5a4c 3ebd a0d4 1a3d ae80 a53c 2882 39bd
00000180: 149e 6e3b 4df4 163d cd0b b23c bbe6 8bbd
00000190: 8001 1abd 336f bcbc 2148 b73d 2ae0 563d
000001a0: 8847 5c3d 1280 f6bc 2f4b b23b 93d9 283c
000001b0: c712 4c3d 0c2a 8839 f5bb 81bd b644 303b
000001c0: 382c 65b8 8085 ba3b efea 9f3d 3e49 3abd
000001d0: 5616 b1bc 4ab3 08bd 6220 cb3c ccb8 fb3c
000001e0: 197c 693d 13b3 413b 0194 413c bb00 12bd
000001f0: f84f 1b3d 3612 363b c33b 9a3c 21fd d33b

conv_block.9.weight f4 [128]
1.0475925 1.034536 1.0646011 1.0494446 1.0670915 1.0615346 1.0634446 1.0677575
1.026902 1.0496136 1.0424578 1.0667778 1.0547854 1.055908 1.0590854 1.0660421
1.0694977 1.0230278 1.0434493 1.0387368 1.0488089 1.0541992 1.058013 1.0526762
1.0648706 1.0553356 1.0449586 1.0414345 1.0654747 1.0489182 1.049764 0.9711804
1.0655975 1.0338039 1.0314473 1.0454044 1.0508926 1.0511205 1.0562208 1.064
1.017018 1.063054 1.0514163 1.0548344 1.0539261 1.0358744 1.0466386 1.0311223
1.0356042 1.0424204 1.0395174 1.0466601 1.0399258 1.0592309 1.0353179 1.0375934
1.0490658 1.0581094 1.0474386 1.042046 1.0204587 1.0497112 1.0533117 1.0528125
1.0378458 1.0137994 1.0512087 1.0136158 1.0391047 1.0211358 1.0533497 1.0615935
1.0460588 1.0573679 1.071656 1.0527183 1.0102485 1.029185 1.04981 1.047789
1.0680922 1.0543479 1.057955 1.0477303 1.0356584 1.0650576 1.0525682 1.0463748
1.0476701 1.017989 1.0697533 1.0282267 1.0808322 1.0227203 1.066523 1.0376328
1.0676332 1.0595077 1.0572991 1.0553863 1.0446883 1.0555884 1.0592363 1.0225859
1.0251769 0.98115873 1.0544869 1.0613974 1.0407813 1.0474242 1.0643488 1.0714127
1.0483413 1.0590277 1.0671523 1.0376667 1.0505373 1.0187448 1.0791066 1.0705434
1.049239 1.0557437 1.0629766 1.0015329 1.0411817 1.0676688 1.0236816 1.0593991
00000000: 8317 863f ad6b 843f d944 883f 3354 863f
00000010: 7496 883f 5ee0 873f f41e 883f 47ac 883f
00000020: 8671 833f bd59 863f 426f 853f 2d8c 883f
00000030: 3503 873f fe27 873f 1c90 873f 1174 883f
00000040: 4de5 883f 93f2 823f bf8f 853f 54f5 843f
00000050: 5f3f 863f 00f0 863f f86c 873f 18be 863f
00000060: ae4d 883f 3d15 873f 34c1 853f ba4d 853f
00000070: 7a61 883f f442 863f ab5e 863f 479f 783f
00000080: 8065 883f b053 843f 7706 843f d0cf 853f
00000090: a683 863f 1e8b 863f 3e32 873f 2731 883f
000000a0: a52d 823f 2712 883f cf94 863f d004 873f
000000b0: 0de7 863f 8897 843f 41f8 853f d1fb 833f
000000c0: ae8e 843f 086e 853f e80e 853f f5f8 853f
000000d0: 4a1c 853f e194 873f 4c85 843f dccf 843f
000000e0: ca47 863f 2170 873f 7812 863f c361 853f
000000f0: 649e 823f f05c 863f ebd2 863f 8fc2 863f
00000100: 22d8 843f 2ec4 813f 028e 863f 2abe 813f
00000110: 6201 853f 94b4 823f 2ad4 863f 4ce2 873f
00000120: 41e5 853f d557 873f 062c 893f 79bf 863f
00000130: d34f 813f 56bc 833f 2d60 863f f31d 863f
00000140: 3fb7 883f dff4 863f 126b 873f 071c 863f
00000150: 7490 843f cf53 883f 8eba 863f 9cef 853f
00000160: 0e1a 863f 774d 823f aded 883f ef9c 833f
00000170: b658 8a3f 80e8 823f d383 883f 27d1 843f
00000180: 34a8 883f f39d 873f 9455 873f e616 873f
00000190: 59b8 853f 851d 873f 0e95 873f 18e4 823f
000001a0: ff38 833f 382d 7b3f 6df9 863f dfdb 873f
000001b0: 5238 853f ff11 863f 953c 883f 0d24 893f
000001c0: 0c30 863f 388e 873f 7298 883f 43d2 843f
000001d0: 0278 863f 3b66 823f 2a20 8a3f 9107 893f
000001e0: 774d 863f 9c22 873f 9e0f 883f 3b32 803f
000001f0: 7145 853f 5fa9 883f 0008 833f 649a 873f

conv_block.9.bias f4 [128]
-0.021400155 -0.03985963 -0.008407454 -0.009161354 -0.0008725769 0.0052187997 -0.006466417 0.003445463
-0.03428613 -0.015776848 -0.022906912 -0.0034613982 -0.0106018 -0.011371918 -0.011222793 0.0036585035
0.0037795894 -0.043634977 -0.029283538 -0.027743097 -0.013456823 -0.015110446 -0.0117885955 -0.013339328
0.00082479644 -0.015576904 -0.027201064 -0.018519534 0.0058795405 -0.029926324 -0.016058147 -0.09374091
0.0072037852 -0.03530943 -0.04069979 -0.026210664 -0.01775477 -0.01727003 -0.024091223 -0.0022713183
-0.042261478 -0.0038461133 -0.013869525 -0.0126529625 -0.004947074 -0.02898752 -0.042360205 -0.03388927
-0.031491484 -0.026288722 -0.026515497 -0.024364358 -0.03031722 -0.0157009 -0.034408152 -0.03143764
-0.020299029 -0.010514611 -0.019960165 -0.029965553 -0.037396815 -0.019892152 -0.0072312052 -0.013337703
-0.037947696 -0.04568654 -0.020920562 -0.045908794 -0.02924753 -0.04167602 -0.027064394 -0.010289617
-0.028640525 -0.0079981275 0.0031864648 -0.029346934 -0.048930086 -0.03365696 -0.020954065 -0.030018788
-0.0003461437 -0.02154885 -0.015520088 -0.029296769 -0.04761904 -0.0082085775 -0.014469704 -0.025742086
-0.019943487 -0.028840864 0.0052427296 -0.05187852 0.011881331 -0.0400822 -0.0021066347 -0.03987308
-0.0046731555 -0.0010355595 -0.02034476 -0.020448906 -0.011339189 -0.006171042 -0.005923776 -0.039046425
-0.04374935 -0.06409224 -0.015343671 -0.0047151577 -0.024419544 -0.036542315 0.0008096224 -0.0003683129
-0.026314523 -0.009254671 0.0009686438 -0.049431164 -0.0042197276 -0.042059455 0.014395986 0.007209645
-0.017393816 -0.011212587 -0.006184967 -0.05004079 -0.035922416 0.005288823 -0.049852252 -0.009180068
00000000: 614f afbc da43 23bd 6bbf 09bc 8119 16bc
00000010: a5bd 64ba 7702 ab3b 3de4 d3bb 47cd 613b
00000020: 9d6f 0cbd 733e 81bc 47a7 bbbc a0d8 62bb
00000030: 2cb3 2dbc 4851 3abc cedf 37bc 81c3 6f3b
00000040: fdb2 773b 97ba 32bd 08e4 efbc 7e45 e3bc
00000050: 027a 5cbc ce91 77bc f424 41bc 328d 5abc
00000060: 2737 583a 4536 7fbc c4d4 debc 47b6 97bc
00000070: 29a9 c03b 0d28 f5bc 608c 83bc 3cfb bfbd
00000080: bb0d ec3b 9fa0 10bd d3b4 26bd bfb7 d6bc
00000090: 7472 91bc e179 8dbc f55a c5bc 66da 14bb
000000a0: 5f1a 2dbd 130f 7cbb 013d 63bc 5f4e 4fbc
000000b0: 111b a2bb 3c77 edbc e581 2dbd 7acf 0abd
000000c0: 37fd 00bd 725b d7bc 0737 d9bc c397 c7bc
000000d0: d25b f8bc 2d9f 80bc 90ef 0cbd c1c4 00bd
000000e0: 264a a6bc 7a45 2cbc 8083 a3bc 527a f5bc
000000f0: 672d 19bd def4 a2bc bff3 ecbb 6286 5abc
00000100: 0b6f 1bbd cf21 3bbd 9961 abbc dc0a 3cbd
00000110: 8498 efbc 79b4 2abd 26b6 ddbc c895 28bc
00000120: 899f eabc 940a 03bc 02d4 503b fb68 f0bc
00000130: ea6a 48bd e1db 09bd dca7 abbc f6e9 f5bc
00000140: 9f7a b5b9 3787 b0bc f847 7ebc c7ff efbc
00000150: 2f0c 43bd 457d 06bc 5612 6dbc 11e1 d2bc
00000160: 8660 a3bc ad43 ecbc 34cb ab3b 927e 54bd
00000170: eaa9 423c 3c2d 24bd 770f 0abb f451 23bd
00000180: 4521 99bb 9cbb 87ba 0eaa a6bc 7784 a7bc
00000190: 01c8 39bc 7436 cabb 3c1c c2bb 25ef 1fbd
000001a0: 8532 33bd cb42 83bd 0564 7bbc 9c81 9abb
000001b0: 7f0b c8bc 65ad 15bd d73c 543a 1f1a c1b9
000001c0: 8e91 d7bc e7a0 17bc 96ec 7d3a 5578 4abd
000001d0: a445 8abb 8946 2cbd 24dd 6b3c e33e ec3b
000001e0: 7a7d 8ebc 00b5 37bc 43ab cabb 92f7 4cbd
000001f0: 6223 13bd dd4d ad3b e031 4cbd ff67 16bc

conv_block.9.running_mean f4 [128]
-0.8878943 1.6256435 -3.3718767 -0.9893014 -3.5863178 -2.2457902 -3.5849433 -3.386863
-3.6151788 -0.7956324 -3.7669847 -3.6729674 -3.613589 -3.5132034 -3.4068735 -2.6844811
-3.6478915 -1.2488973 -1.2241522 -1.1308863 -0.8329216 -1.3856035 -3.6943836 -1.161122
-3.4573057 -0.7871954 -3.7746603 -3.3545697 -3.574113 -1.2666672 -3.461005 2.1140668
-2.3325925 -1.0951313 -0.76729304 -0.8280891 -1.119292 -1.3602753 -0.83170086 -3.4970202
-3.575402 -3.2261295 -3.5290382 -3.4941192 -2.2119522 -3.4506447 1.7551663 -1.0254831
-1.59853 -0.9602758 -3.6166203 -1.0317037 -1.0885562 -1.0669502 -1.3157275 -1.1982545
-0.9717792 -1.120551 -3.6780295 1.7606527 -0.9281688 -1.4453416 -3.3195317 -3.745315
-1.2022132 -1.3713709 -3.4799128 -0.9727727 -3.4773767 -0.7232584 1.8388216 -0.9865951
-1.4697568 -3.5579684 -3.5435586 -1.2404189 -3.54702 -0.82753134 -1.2899427 -1.0056429
-3.5003974 -1.369489 -1.0822648 -1.3650438 2.0964553 -1.0726224 -3.6027272 -1.389357
-0.9463674 -2.046999 -3.201849 1.9048873 -2.379017 -1.0623769 -3.677016 1.6626259
-1.0150279 -3.630418 -1.0075012 -1.2154387 -2.0745745 -3.5253594 -3.6174684 -1.2490926
-0.7814754 -0.8137717 -1.0934047 -3.6293135 -3.518747 1.6915739 -3.4264424 -3.3904839
-0.9529304 -3.5719135 -3.3935273 1.9105258 -2.3013527 -1.28764 -2.1868613 -3.6909993
-0.6879145 -3.4896383 -3.2649746 -1.2575116 1.870357 -2.1753206 -1.4398533 -0.98754925
00000000: 0a4d 63bf 1615 d03f d4cc 57c0 db42 7dbf
00000010: 3b86 65c0 07bb 0fc0 b66f 65c0 5dc2 58c0
00000020: 175f 67c0 91ae 4bbf 4716 71c0 e611 6bc0
00000030: 0b45 67c0 53d8 60c0 370a 5ac0 8ace 2bc0
00000040: 0e77 69c0 dedb 9fbf 05b1 9cbf e2c0 90bf
00000050: 5a3a 55bf 755b b1bf c870 6cc0 a59f 94bf
00000060: 7f44 5dc0 a385 49bf 0994 71c0 45b1 56c0
00000070: 44be 64c0 2722 a2bf 1b81 5dc0 df4c 0740
00000080: 3249 15c0 432d 8cbf 516d 44bf a6fd 53bf
00000090: f644 8fbf 801d aebf 59ea 54bf 2ecf 5fc0
000000a0: 63d3 64c0 e878 4ec0 c3db 61c0 a69f 5fc0
000000b0: a090 0dc0 5dd7 5cc0 4aa9 e03f 0843 83bf
000000c0: a29c ccbf a3d4 75bf b576 67c0 de0e 84bf
000000d0: cf55 8bbf d391 88bf c269 a8bf 6760 99bf
000000e0: 86c6 78bf 376e 8fbf d664 6bc0 115d e13f
000000f0: 789c 6dbf f400 b9bf 3573 54c0 3eb3 6fc0
00000100: 1fe2 99bf 1589 afbf e4b6 5ec0 a207 79bf
00000110: 578d 5ec0 7627 39bf 825e eb3f 7f91 7cbf
00000120: fe20 bcbf c1b5 63c0 aac9 62c0 0cc6 9ebf
00000130: 6002 63c0 18d9 53bf d81c a5bf e8b8 80bf
00000140: 8306 60c0 6a4b afbf a787 8abf c1b9 aebf
00000150: 532c 0640 b14b 89bf 1593 66c0 73d6 b1bf
00000160: 2245 72bf 0802 03c0 18eb 4cc0 59d3 f33f
00000170: d141 18c0 f7fb 87bf 3b54 6bc0 edd0 d43f
00000180: 6fec 81bf c558 68c0 cdf5 80bf 7f93 9bbf
00000190: d4c5 04c0 7d9f 61c0 9a84 67c0 44e2 9fbf
000001a0: c60e 48bf 5853 50bf aff4 8bbf ac46 68c0
000001b0: 2733 61c0 7e85 d83f d54a 5bc0 b0fd 58c0
000001c0: 3ff3 73bf 3b9a 64c0 8d2f 59c0 1c8c f43f
000001d0: 5d49 13c0 63d1 a4bf 89f5 0bc0 5539 6cc0
000001e0: 2a1b 30bf 3c56 5fc0 58f5 50c0 24f6 a0bf
000001f0: dc67 ef3f 7438 0bc0 1d4d b8bf 07d0 7cbf

conv_block.9.running_var f4 [128]
1.8363181 1.6219051 1.769886 1.6619309 2.1945794 1.3715976 2.1753757 1.8189286
2.0248885 2.1038077 2.1995475 2.0122592 1.8891613 1.99039 1.849766 1.2535157
1.9565927 1.668791 1.9607307 1.5312117 1.9358326 1.4667554 2.1362696 1.6947854
1.8300027 1.9393994 2.3202727 2.0623589 1.9065052 1.6592034 2.2757678 1.8898585
1.233575 1.8308698 2.1086514 1.9219301 1.982656 1.6686636 2.203186 1.9721844
2.2769523 1.6758991 2.1811557 1.8416964 1.5976241 1.8303761 1.8241916 2.0721526
1.349614 1.9539957 2.4149306 1.8151681 1.6591514 1.818294 1.5081556 1.7048137
1.8710264 1.7021527 1.9608773 1.7492149 1.9199771 1.3294173 1.6619548 2.357939
1.8176308 1.4193414 2.184158 1.9444911 2.148879 2.1769314 1.7860731 1.9772459
1.7703006 1.8622887 2.1534355 1.8317974 2.2531524 2.0429127 1.580107 1.9871528
1.7299408 1.5036438 1.8790679 1.8191708 1.9873873 1.8625419 2.0641284 1.6785132
1.848767 1.8152553 1.6617877 1.9143336 1.6143414 1.7716172 2.0107474 1.7693095
1.8852503 2.0145636 1.873869 1.8467567 1.806521 2.226536 2.1965902 1.7359884
2.0487897 1.8356701 1.6361994 2.2838833 2.2238252 1.7351476 1.70203 1.9987763
2.0795712 1.8902752 1.8724984 1.9311403 1.6680807 0.9793266 1.6530528 2.241312
2.1047566 2.1362503 1.6173803 2.1916351 1.7550185 1.4334736 1.4017857 1.7680923
00000000: 790c eb3f 969a cf3f a08b e23f 27ba d43f
00000010: fd73 0c40 8390 af3f 5b39 0b40 a7d2 e83f
00000020: c697 0140 c9a4 0640 63c5 0c40 dbc8 0040
00000030: 0ad0 f13f 19c5 fe3f 22c5 ec3f 3473 a03f
00000040: a171 fa3f f29a d53f 39f9 fa3f bffe c33f
00000050: 5dc9 f73f a4be bb3f a4b8 0840 baee d83f
00000060: 873d ea3f 3d3e f83f 597f 1440 b0fd 0340
00000070: 5d08 f43f c760 d43f 2ea6 1140 e2e6 f13f
00000080: c9e5 9d3f f159 ea3f 25f4 0640 ce01 f63f
00000090: acc7 fd3f c596 d53f 0001 0d40 8a70 fc3f
000000a0: 96b9 1140 dd83 d63f 0e98 0b40 b5bc eb3f
000000b0: f27e cc3f c449 ea3f 1c7f e93f 269e 0440
000000c0: 27c0 ac3f 881c fa3f 398e 1a40 6e57 e83f
000000d0: 135f d43f dcbd e83f 3e0b c13f 5637 da3f
000000e0: cb7d ef3f 24e0 d93f 07fe fa3f 46e6 df3f
000000f0: cfc1 f53f 592a aa3f efba d43f 79e8 1640
00000100: 20a8 e83f fbac b53f 3fc9 0b40 16e5 f83f
00000110: 3c87 0940 d852 0b40 0b9e e43f 6516 fd3f
00000120: 3699 e23f 7a5f ee3f e3d1 0940 5678 ea3f
00000130: a633 1040 15bf 0240 f240 ca3f 065b fe3f
00000140: b36e dd3f 6677 c03f 4c85 f03f 97da e83f
00000150: b562 fe3f c667 ee3f ae1a 0440 85d9 d63f
00000160: 66a4 ec3f 495a e83f 76b5 d43f e208 f53f
00000170: bda2 ce3f 5ac4 e23f 16b0 0040 bc78 e23f
00000180: e24f f13f 9cee 0040 f0da ef3f 8662 ec3f
00000190: 153c e73f 917f 0e40 ef94 0c40 de34 de3f
000001a0: 5f1f 0340 3df7 ea3f fb6e d13f 252b 1240
000001b0: 2753 0e40 5119 de3f 1edc d93f e7d7 ff3f
000001c0: b217 0540 8af4 f13f 07ae ef3f 9b2f f73f
000001d0: ab83 d53f 26b5 7a3f 3c97 d33f a871 0f40
000001e0: 55b4 0640 53b8 0840 5106 cf3f c043 0c40
000001f0: 72a4 e03f 107c b73f b76d b33f d950 e23f
